model.pth (torch, 193064 bytes, 8 tensors)

fc1.weight f4 [256, 15]
000000 79 74 ea bd 5a 62 ab be 68 bc 82 3e 3a 2d 96 3b
       -0.11447997 -0.33473474 0.25534368 0.004583028
000010 a3 e6 9c 3c ed 06 f1 bd 71 cf 53 be 49 5d a2 3e
       0.019152945 -0.11768899 -0.20684601 0.31711796
000020 e8 59 64 3c 17 e3 4e be 45 34 6c be 76 ad e2 3e
       0.013937451 -0.20203815 -0.23066814 0.44272965
000030 9a fd d3 3d fd 97 83 3e e1 b6 83 3e a4 c6 08 bf
       0.10351105 0.25701895 0.25725463 -0.534281
000040 89 b8 a7 3e 74 48 a5 bf 75 55 43 3e 10 bf 0a bd
       0.32757977 -1.2912736 0.19075568 -0.033873618
000050 dd 4b b1 bc 49 75 75 be 11 34 89 3e e2 b3 a9 bd
       -0.02164262 -0.23970522 0.26797536 -0.08286263
000060 50 0f 9a 3e d5 66 a0 bd c1 b2 f7 bd f3 91 1b be
       0.30089808 -0.07832114 -0.120946415 -0.15192394
000070 af 4a 03 3d 0b 08 38 be 80 24 fc 3d 88 4a d1 be
       0.032053646 -0.17971818 0.12311649 -0.40877175
000080 66 d4 80 3d 74 04 cc bd ce 77 5c be 49 13 85 3e
       0.06290512 -0.09961787 -0.21530077 0.25991276
000090 97 4e 17 3e 98 30 82 3e 6e e2 60 be 0a 74 7e be
       0.14776073 0.254277 -0.21961376 -0.24848953
0000a0 7b 7a 6c 3e 89 b8 23 be de 5c 39 3e 36 74 4d be
       0.23093598 -0.15988363 0.18101832 -0.20063862
0000b0 fd 4f 4b 3e 1c 30 83 3c 97 7d 9a 3e 20 20 a2 3d
       0.19854732 0.016014151 0.30173942 0.079162836
0000c0 02 cd 9a 3e 9e 83 c8 3d 5a 2d 80 3e df fd 9c be
       0.30234534 0.09790729 0.250346 -0.30662438
0000d0 44 f8 3c 3e f5 e6 2d 3e 3d fe e0 3e 5f c3 8c bd
       0.18454081 0.16982634 0.43943968 -0.068732016
0000e0 ef 9f 19 3e f6 f0 74 be 44 c0 3f be fd ae 28 bc
       0.15002416 -0.23920044 -0.18725687 -0.010295627
0000f0 6b de 1d 3d d2 1f cd 3e ce 5f ed 3e e8 8f b6 bc
       0.038542192 0.4006334 0.46362156 -0.022285417
000100 b2 02 b6 3c 2e 96 5e 3e e5 96 55 3e 22 b2 23 be
       0.022218082 0.21736977 0.20858343 -0.15985921
000110 e9 dc 02 3e 7a 92 b0 be fb 39 81 3d 6d 45 48 be
       0.12779583 -0.34486753 0.06309887 -0.19557734
000120 2b 83 52 3e ca dd c7 bc 97 cb 76 be 9c 83 b5 be
       0.20557849 -0.02439775 -0.24101101 -0.35451972
000130 26 43 a4 3e 75 48 84 bf 24 e6 e1 bd 97 b6 1b 3e
       0.3208248 -1.0334612 -0.11030224 0.15206371
000140 fb 98 37 bd d1 ad 09 3e de 6b fb bc f2 8a 9a 3d
       -0.044823628 0.13445212 -0.030691084 0.07546033
000150 77 b8 eb 3c a9 e2 15 3d 8d 3b 99 3e 3d 35 a3 be
       0.028774483 0.036593113 0.29928246 -0.31876555
000160 9c 09 f4 bc 7e ae 2d be 2f ea da 3d ba 88 60 bf
       -0.029789738 -0.16961095 0.10689198 -0.8770863
000170 7d 15 70 3e a1 6c 00 bd 26 ea 00 3e 63 e1 92 be
       0.23445697 -0.031353597 0.1258932 -0.2868758
000180 f6 cd 4b be 14 da ae 3e a6 e6 6a 3e 78 33 15 3e
       -0.19902787 0.34150755 0.22939548 0.14570415
000190 98 c9 a8 3e 83 6e 7f be 28 e2 55 3e b1 42 71 3e
       0.32966304 -0.249445 0.20887053 0.23560597
0001a0 d3 43 0e be 1b 4a 50 be ba 0a c8 bd d0 52 e4 bd
       -0.1389306 -0.20340769 -0.09767671 -0.11148608
0001b0 11 7f 35 3e fc 07 11 be 57 b9 91 3e 5b 7f 88 be
       0.17724253 -0.14163202 0.28461716 -0.26659665
0001c0 ef f8 a7 bc e4 df f6 3d 77 0d 25 bf c5 f5 2a b9
       -0.020504443 0.120544225 -0.6447367 -0.0001630402
0001d0 ea f7 aa bd 60 7d 7f 3e c5 0a 53 be b5 6c 8c bc
       -0.08348067 0.2495017 -0.20609577 -0.01714168
0001e0 a0 ec 13 3e 8f 31 cd 3e 37 49 b3 be 2b 17 46 bd
       0.14445734 0.40076873 -0.35016796 -0.04836194
0001f0 fc e3 9d bd 66 3a 2f be 97 4d a2 3e a1 47 be bd
       -0.077095 -0.17112121 0.3169982 -0.09291006
000200 f7 e5 ba 3d 78 d0 41 be 8b cc 1f be 4c f6 ad 3e
       0.091258936 -0.18927181 -0.1560537 0.33976972
000210 4e 55 a1 bb d2 07 f5 3d 09 71 42 bd f5 26 0d be
       -0.004923499 0.11964382 -0.04747108 -0.13784392
000220 62 4b cd 3d 06 87 c8 be 8d ad 1e 3e 08 b1 17 3b
       0.10024144 -0.39165515 0.15495892 0.002314629
000230 25 e9 37 bd d0 54 f4 bc 0c 79 90 3c 27 a5 dc bd
       -0.04490008 -0.029825598 0.017635845 -0.10773688
000240 e9 ea 6c 3c 2b 4c e2 bd 84 44 69 3e 3f f9 13 3e
       0.014460304 -0.11049684 0.22780043 0.14450549
000250 c2 86 f9 bd 46 26 84 3e ce 01 7e be 29 1a b0 be
       -0.12183906 0.2581045 -0.24805376 -0.3439496
000260 7a b6 8a 3d 2c fd f5 3d 3e a9 44 bc f0 1a d1 be
       0.06773086 0.12011179 -0.012003241 -0.40840864
000270 71 bd 5a be f3 56 47 3e 7c 5a a2 bd aa dd 28 3e
       -0.21361329 0.19466762 -0.07927415 0.16490808
000280 72 65 90 3e cc 60 2c 3e df 40 dc bc 09 0e 99 3d
       0.28202397 0.168338 -0.026886402 0.0747338
000290 b7 d9 d5 bd 78 51 8c 3e b5 9e 68 3e 7c bd 0d b9
       -0.104419164 0.27405906 0.22716792 -0.00013517396
0002a0 49 52 6e 3d ca 1d 94 be 32 6c 98 3e 50 99 96 3e
       0.058183942 -0.28928977 0.29770046 0.29413843
0002b0 6f 3b 85 bc 26 9a 1d be 8d 5b a0 be a2 2b fd bd
       -0.016263692 -0.15390834 -0.31319848 -0.12361838
0002c0 60 dd 90 bd b9 ac 63 3e 04 bb 2d be 84 52 c9 3d
       -0.07073474 0.22233857 -0.16965872 0.09830192
0002d0 bc dd f6 3e ec 5b 80 3e f2 dc 7a 3e 8e 1a 98 be
       0.48216045 0.2507013 0.24498346 -0.2970776
0002e0 f0 30 d6 bd c8 f2 51 3e 15 53 e0 bd 13 89 60 be
       -0.10458553 0.2050277 -0.10953347 -0.2192729
0002f0 5b 22 7f 3e 0f f6 d4 3d 63 1c e0 bd d4 62 43 3e
       0.2491545 0.103984945 -0.10942914 0.19080669
000300 04 a3 4c 3e 64 6a 47 3e 5d ed 86 3d ea 3f 37 3e
       0.1998406 0.19474179 0.06588242 0.17895475
000310 98 bd 87 bd e4 88 a4 bd a0 27 10 bd 8e 6e 19 3e
       -0.06627959 -0.08033922 -0.03519404 0.1498358
000320 60 83 df 3d 92 89 c2 3d 87 54 83 3d 17 6f f6 3d
       0.1091373 0.09498896 0.06412607 0.120329075
000330 9e c2 02 be 4d 44 33 be f3 a5 43 be 40 08 c5 bd
       -0.12769553 -0.17506523 -0.19106273 -0.09620714
000340 72 7c 11 3d 2d de 75 bb 00 81 f7 3c d4 dd 45 be
       0.03551907 -0.003751646 0.03021288 -0.19322902
000350 ab ce b1 3e 0c c6 47 3e 64 5c d7 be d6 be 1d bd
       0.34727988 0.19509143 -0.42062676 -0.038512073
000360 59 80 64 3d 63 50 1b 3e cc bd 02 3e dc 8f b7 3e
       0.055786464 0.15167384 0.12767714 0.35851943
000370 80 ff 26 be 35 25 03 be 3a 4e c3 3c a8 3c 8d bd
       -0.16308403 -0.12807162 0.023841012 -0.06896335
000380 3f e7 da bd 13 21 65 3d 0c 36 16 be d0 b6 96 be
       -0.10688638 0.055939745 -0.14669055 -0.2943635
000390 d5 8c 89 be 6a fc 12 3e 52 9c fd bd 11 46 36 3e
       -0.2686526 0.14354101 -0.12383331 0.17800166
0003a0 c6 52 62 3e 42 9e 62 3d ed ff 07 bf cc 2b de 3d
       0.22101888 0.055326708 -0.53124887 0.10848197
0003b0 12 af 42 bd f2 a4 d9 3d 3c 93 3a 3e 99 8c be bd
       -0.04753024 0.10627164 0.18220228 -0.093041606
0003c0 40 fd 91 3c 2c 23 13 be 8b 80 4d 3d 37 92 4b 3e
       0.017820954 -0.14368886 0.050171416 0.19879995
0003d0 d5 82 bd 3c 31 92 20 3e 0b 63 48 3e dc 7a c8 bd
       0.023133675 0.15680768 0.19569032 -0.097890586
0003e0 19 66 19 3e aa 92 60 be f5 57 0c be 86 91 43 3e
       0.14980353 -0.21930948 -0.13705428 0.19098482
0003f0 16 ef 5b be c5 ef ee 3c ac a9 32 be e8 c5 35 be
       -0.21477923 0.029167065 -0.17447537 -0.17751276

fc1.bias f4 [256]
000000 3c 96 89 3d 5f b9 d5 3d 71 d3 88 3e 30 5d 86 bd
       0.06718108 0.10435747 0.26723817 -0.06560743
000010 da 9d 86 be 71 b8 2d bb 9b 1a 80 be cd e8 80 3e
       -0.26292306 -0.002650764 -0.25020298 0.25177613
000020 54 85 2a 3e d2 e2 52 3e c3 c0 06 3e f2 1c 85 bd
       0.16652423 0.20594338 0.1315947 -0.064996615
000030 e5 c2 3f 3e 4b 20 24 be 2c b9 de 3d 6a a1 03 3e
       0.1872669 -0.16027944 0.108751625 0.12854543
000040 0e 8d 01 3e 9f 5e a4 bd c4 ae 65 3e a4 91 37 3e
       0.12651464 -0.0802586 0.22429949 0.17926651
000050 02 0a ee bd 39 c9 c0 3d b9 58 76 3e 1c a9 3b 3e
       -0.116230026 0.0941338 0.24057283 0.18326229
000060 bc be f4 bd a4 34 5f bd 91 a6 75 3d 43 91 f8 bd
       -0.11950442 -0.05449356 0.059973303 -0.121370815
000070 f5 41 24 3e 8e 45 f7 bd 62 47 9b bd 27 eb 20 bd
       0.16040786 -0.120738134 -0.075819746 -0.03928676
000080 42 37 26 be 31 83 60 3e 15 59 58 be e7 86 b5 3c
       -0.16232017 0.21925046 -0.21127732 0.022159053
000090 b1 fd ed 3d dd c6 a8 3d 4a 94 48 be d1 f8 12 bc
       0.116206534 0.08241055 -0.19587818 -0.008970455
0000a0 2e 85 f1 3c fd 2a 57 3d 09 05 51 3e d1 fb a5 bd
       0.02948245 0.05253123 0.20412077 -0.08104671
0000b0 98 ee d9 3c a9 c1 67 3e ee e3 1d be 9f 83 10 be
       0.026603028 0.22632469 -0.1541898 -0.1411271
0000c0 49 2c 2e be 80 32 9a 3d a2 ff 7a be 57 ca 40 3e
       -0.17009081 0.07529163 -0.24511579 0.18827187
0000d0 98 e8 be 3c 50 0b f5 bd c9 f2 6f 3d 8a b3 d8 3d
       0.023304269 -0.11965048 0.058581147 0.10581119
0000e0 85 0f 0d 3d 5c e6 d3 bd 54 ed 12 be b9 c2 28 3d
       0.03443863 -0.10346672 -0.14348346 0.041201327
0000f0 d0 88 f6 3d 52 f6 22 3e 61 30 40 3e 5e e6 11 3e
       0.12037814 0.15914276 0.18768455 0.14248034
000100 43 7c 9c 3e 88 46 b0 3c ab f3 f7 bd 2d b7 82 bd
       0.30563554 0.021518007 -0.12107023 -0.06382594
000110 15 fc 2c 3d 5a 28 1a be 77 c0 28 bb cd e8 6d 3e
       0.04223259 -0.15054455 -0.0025749484 0.23233338
000120 33 2e ed 3d 16 46 53 bc 1a a0 47 be cd 61 6e 3e
       0.115810774 -0.012895128 -0.19494668 0.23279496
000130 af eb 01 3d 42 7f c3 bd e1 7f 4f be 53 25 9c bc
       0.031718906 -0.09545757 -0.20263626 -0.019060766
000140 e9 da 2e be 92 84 a6 be c5 69 9d 3d 7b c7 49 be
       -0.17075695 -0.32523018 0.076861896 -0.19705002
000150 59 77 d3 3c a5 ee c9 3d 14 1f 7f 3e 7a c3 89 bd
       0.025813745 0.09859971 0.24914199 -0.06726737
000160 79 fd b0 3d 3d d6 2c 3c 8c 0d cc 3d 1c 5d 54 be
       0.08642096 0.010549125 0.09963521 -0.20738643
000170 43 d8 e9 bd c4 01 f7 bc dc bf 73 bd 79 a6 df bc
       -0.11418202 -0.03015221 -0.059509143 -0.02730106
000180 f1 2d 14 be 42 63 bd 3d 98 94 14 be 82 66 3b bd
       -0.1447065 0.092474476 -0.14509809 -0.045752056
000190 a7 fe c4 3c 77 67 62 bd 3d fa 47 be 22 26 15 3e
       0.024047209 -0.055274453 -0.19529052 0.14565328
0001a0 c4 02 3c 3d b4 c5 29 3e a6 99 a6 3d 29 ab 8c bd
       0.045901075 0.16579324 0.08134775 -0.06868584
0001b0 53 03 04 3e da 8f 1f be 78 a6 a4 bc c6 e0 3e 3d
       0.12891893 -0.15582219 -0.02009891 0.04660108
0001c0 fc 97 73 be 5f 8d 5a 3e ff 26 f8 bd e3 52 88 3e
       -0.23788446 0.21342991 -0.12116813 0.26625738
0001d0 8d 07 6a bd f6 4b bf 3d e8 be d0 bb a7 32 a7 3e
       -0.057136107 0.0934066 -0.006370414 0.32655832
0001e0 ce 3d 83 3e e8 04 8e 3c 2f a3 51 3e 8f dc c3 3d
       0.2563309 0.017336324 0.20472406 0.095635526
0001f0 34 5e 33 3e 5d 14 89 bd 0a 59 24 be 23 a8 b2 3d
       0.17516404 -0.06693337 -0.1604959 0.08723476
000200 03 7f 6b 3d fc 1e 85 3e a6 b1 3f be cf f0 0a 3e
       0.057494175 0.26000202 -0.18720111 0.13568424
000210 da 4e 69 be 0a bf 55 3e 3f cc 3a 3a b6 e9 82 bc
       -0.22783986 0.20873657 0.0007125772 -0.015980583
000220 2e 46 3b 3e 56 de ef bd 4c 73 e9 bd 36 55 53 3e
       0.1828849 -0.11712329 -0.11398944 0.20637974
000230 b8 fd 23 be 19 a3 5c be 51 a8 80 be a9 13 21 be
       -0.16014755 -0.21546592 -0.25128415 -0.15730156
000240 ce ad 80 bd ee 0d 19 3e 33 9e a9 3d 50 31 97 3d
       -0.062831506 0.1494672 0.08282127 0.073824525
000250 d4 ca 5c 3e 84 7a ab bd c6 1f ef bc 08 89 be 3d
       0.21561748 -0.083729774 -0.029189955 0.093034804
000260 fa ac eb bd 13 90 0d 3e 7c 2c ea bd 28 60 66 3e
       -0.11507602 0.13824491 -0.11434266 0.22497618
000270 7c 68 85 3a 42 40 47 3e a1 71 1f 3e a7 f4 78 3e
       0.0010178233 0.19458106 0.1557069 0.24312077
000280 7d 85 8a 3d c0 4e 0c be d8 f7 97 3d 9d ce 27 be
       0.06763742 -0.13701916 0.07420319 -0.1638741
000290 8c 0c 1b 3e 4e af 8e bd 5a 99 44 3e 2b 48 21 3e
       0.15141505 -0.069670305 0.19199124 0.15750186
0002a0 f2 53 3a 3e 50 fb c7 bc 09 5b 90 3d 1e fe 1e be
       0.18196085 -0.024411827 0.070486136 -0.15526626
0002b0 44 9d 19 be 74 08 35 3c 95 1f d2 3d 2e 78 b3 3d
       -0.15001398 0.011049379 0.1025993 0.08763157
0002c0 20 2f 31 be 2b 59 02 3e 28 89 47 bd 13 79 91 3d
       -0.17303133 0.12729327 -0.048714787 0.07103171
0002d0 7b b5 4b be b6 3c 20 be 1e 6c 9c 3c c2 e2 6a 3e
       -0.19893448 -0.1564816 0.019094523 0.22938064
0002e0 9e 27 50 be 6b 87 54 3e de ab e5 3d c3 16 94 3e
       -0.20327613 0.20754783 0.11214422 0.28923616
0002f0 12 34 28 bc 9a 74 8a 3e b4 92 88 3e 8e 0e 56 3e
       -0.010266321 0.27042085 0.26674426 0.2090399
000300 6d 9e 2c be 5c 1d 61 be 4f cf 78 3e df 1b 9a 3e
       -0.1685731 -0.21983856 0.24297832 0.3009939
000310 40 af ab 3e 6c 4d 8f 3e 28 65 14 3d 00 84 8c bc
       0.33532143 0.27988756 0.036229283 -0.017152786
000320 07 92 3d be 6b 68 6d 3e 37 f5 06 be 79 12 8d bd
       -0.18512736 0.23184364 -0.1317948 -0.06888289
000330 a4 9f f6 bd 27 ea 12 bd ff 24 51 3e 4b f4 10 3e
       -0.12042168 -0.035867836 0.20424269 0.1415569
000340 b7 9b 7d be d0 8f 3e be fb 42 88 3e d5 fe 81 3c
       -0.24766432 -0.18609548 0.26613602 0.015868584
000350 a1 67 25 be e2 c3 0a 3e 28 6f ac 3e 7a 75 46 3e
       -0.16152813 0.13551286 0.33678555 0.19380751
000360 05 76 0b 3c 18 30 34 be ba f8 50 3b 15 b5 47 3e
       0.008512025 -0.17596471 0.0031886534 0.19502671
000370 69 e8 7e be 22 ad e6 bd 20 78 82 bd 42 00 33 3e
       -0.24893345 -0.11263491 -0.06370568 0.17480567
000380 6e b7 45 be 9e dc cf bd b1 8e 3c 3e c1 4c 28 be
       -0.19308254 -0.10149501 0.18413807 -0.1643553
000390 a6 d0 35 3e d2 85 30 bd 07 17 68 be 9a 97 da 3d
       0.17755374 -0.04309637 -0.22665034 0.10673447
0003a0 2f fd 3f bd d9 90 20 be b7 1c bd bd 59 2f 24 bd
       -0.046872314 -0.15680255 -0.092339925 -0.040084217
0003b0 d8 41 a9 bd 2d c6 44 be 7a 68 9e bc 0f 97 2f 3e
       -0.08264512 -0.19216223 -0.019336928 0.17147468
0003c0 86 df 91 be ba df 07 be 2e 77 8e bc 5f 05 72 3e
       -0.28490847 -0.13268939 -0.017390814 0.23634861
0003d0 43 a4 30 3e e1 ea 55 be 77 c8 79 be c2 d4 6d 3e
       0.17250161 -0.2089038 -0.24392878 0.23225692
0003e0 93 f7 2c be 8e 6b 02 3d 9b 1e 47 be 0b ba 09 3e
       -0.16891317 0.031840853 -0.19445269 0.13449876
0003f0 fd 23 88 3d ef 7d c1 3c 25 d7 a5 3d 4e 1b 61 be
       0.06647489 0.02361962 0.08097676 -0.21983072

fc2.weight f4 [128, 256]
000000 84 d6 d1 bd 17 d1 79 bd e0 9c 12 3d a4 33 8a be
       -0.10245994 -0.06099042 0.03579414 -0.26992524
000010 e2 7f 55 3e 0a 45 b0 3d ee b5 8d bd 6b 41 ca bc
       0.20849565 0.08606918 -0.06919466 -0.024689397
000020 dd 4c 2e bb f1 55 8d bb cb a5 9f bd 92 24 14 3e
       -0.0026596107 -0.0043132235 -0.077952944 0.14467075
000030 dc 04 2a 3e 8c f7 08 bd 66 2a 3e bd 85 20 b0 3d
       0.16603416 -0.033439204 -0.046427153 0.085999526
000040 b4 22 c8 bd 8a 02 ca 3c 6a f6 90 3d 4c 82 be bd
       -0.09772244 0.024659414 0.0707825 -0.09302196
000050 38 6d 12 bd 1a bf a3 3b e0 95 65 3d 1e 53 29 bd
       -0.03574869 0.0049971463 0.056051135 -0.041339032
000060 cc cd f5 bc f5 df 29 bc a8 8e 7e 3c e9 94 15 bd
       -0.030005358 -0.010368337 0.015536942 -0.036518965
000070 aa c5 03 3e f6 95 6b bd 9a 59 5f bd 30 8b 15 bd
       0.12868372 -0.05751606 -0.05452881 -0.036509693
000080 c4 e4 5b 3e 0c a6 28 bb 08 ef 05 3c 7d ee 25 bc
       0.21473986 -0.0025733737 0.008174665 -0.010127661
000090 b8 54 39 bc 1f ae 96 bb a5 32 eb 3d 2e fa 63 3d
       -0.011311702 -0.0045983936 0.11484269 0.05565851
0000a0 f0 2a 57 3e 4b d9 42 3d cd 70 4b bd 28 d1 0e 3e
       0.21012473 0.047570508 -0.049668122 0.13946974
0000b0 57 eb b8 3d 95 8d ca bc 20 d3 79 3b e7 c8 65 3d
       0.090292625 -0.024725715 0.0038120225 0.0560998
0000c0 04 ab 17 bc 4c 8e 59 3c b4 3f f8 3c 73 2e a4 bc
       -0.009257082 0.013278555 0.030303814 -0.02004168
0000d0 fc e9 53 bd 39 71 a4 bd 96 27 d9 bb df bc 28 3d
       -0.051736817 -0.08029408 -0.0066270335 0.041195747
0000e0 d7 d7 8b ba d5 0d 5f 3c 44 a7 13 3e ff f6 4a bd
       -0.0010669184 0.013614138 0.14419276 -0.04955196
0000f0 fc 10 74 3b 8b a1 d7 bb 72 63 11 3d 18 ef a7 bd
       0.0037241569 -0.0065805367 0.03549523 -0.081999004
000100 9d d1 e7 3e c6 7a 05 3e ab 04 c3 bc 4a bd 1a be
       0.4527711 0.13035116 -0.023805937 -0.1511127
000110 ac 11 97 3e b2 9b 06 bd 1c b6 4d 3d c5 e1 3e bd
       0.2950567 -0.032863326 0.0502225 -0.04660203
000120 84 a5 52 3c 05 46 5c 3d 30 b8 17 3c 84 b7 58 bc
       0.012856845 0.053777713 0.009260222 -0.013227347
000130 3b ba 9f 3c 1a bd d9 bc 63 0e 84 bd df cc c0 3c
       0.019497981 -0.026579428 -0.064480565 0.02353519
000140 7c b6 c2 bc a8 74 49 bd 18 45 49 3c 7c c8 2a bd
       -0.023768656 -0.049183518 0.01228454 -0.041695103
000150 86 65 25 bd a4 57 7f bb 3f 28 97 3c 4d 13 aa be
       -0.040380023 -0.003896215 0.018451808 -0.3321785
000160 06 cd 03 3d 41 44 02 bd 57 bc 67 3d 73 9e 0b 3e
       0.032177947 -0.031803373 0.0565761 0.13634662
000170 f1 f6 f9 be 92 7f 58 3d ce 54 f2 bc 73 19 a7 3d
       -0.48821214 0.052856036 -0.029581454 0.08159151
000180 ac 2c ad bc 98 7f d4 3b 00 cd cb 39 3e 35 58 be
       -0.021139465 0.006484937 0.00038871914 -0.2111406
000190 31 e6 70 3d a0 ad 22 3d f6 d8 ac bc bb 61 c1 bd
       0.058813278 0.039716363 -0.021099549 -0.09442469
0001a0 ba 1d 81 bd e1 ac 0b 3d ca 05 05 bc 08 8b 0f 3e
       -0.06304498 0.034100417 -0.008119056 0.1401788
0001b0 7f c1 2e 3d b8 5a 0e 3e 29 e2 77 3d 79 e6 3b 3d
       0.042665 0.13901794 0.060518418 0.045874093
0001c0 12 fc 2f 3d ba 00 54 bb 9e a2 69 3d 2c f5 cd 3d
       0.042965002 -0.0032349066 0.05703985 0.100565284
0001d0 bf 72 53 bc df a2 b0 3d f0 4e 1d bc c9 de a8 3b
       -0.012905776 0.08624815 -0.00960134 0.005153511
0001e0 30 04 61 3d 87 52 73 3c 20 98 af 3d d3 56 10 3d
       0.054935634 0.014851219 0.085739374 0.035239052
0001f0 65 c9 83 3d 24 42 11 bc ff 95 45 3d 64 9c df 3d
       0.06434897 -0.008865867 0.04823875 0.10918501
000200 df 81 9d bd 6b f7 c8 3d 29 65 a5 be 9f 79 5b bd
       -0.076907866 0.09812816 -0.32303742 -0.053582784
000210 e1 14 94 be 07 b0 4d 3f 09 05 40 3d 94 cd 51 3d
       -0.2892218 0.8034672 0.046879802 0.051221445
000220 57 c9 d7 3d 76 33 b3 3e 68 30 94 bc 65 52 2b 3d
       0.105364494 0.350002 -0.018089488 0.041826624
000230 30 a6 29 3e a8 46 47 bd 70 db 1f bf d4 ea bd 3c
       0.16567302 -0.048651367 -0.6244421 0.023183264
000240 8b 8e c8 bd fe 76 8d bd af 39 ce 3d d6 03 b8 bd
       -0.09792813 -0.069074616 0.10069596 -0.08985107
000250 19 c3 17 3d d6 64 1b be cf d1 10 be 60 b7 fb bd
       0.037051294 -0.15175185 -0.14142536 -0.122908354
000260 21 27 b1 be a0 45 e5 3e 18 bc af bd 4a 19 3b 3d
       -0.34600165 0.44779682 -0.08580798 0.045678414
000270 b6 42 52 3d a2 7e 85 3d b8 ad 55 be 9f 60 f2 3d
       0.05133315 0.06518294 -0.2086705 0.11834835
000280 00 b8 df 3d c9 c7 6f 3e 96 bb 48 bd 18 b2 26 bc
       0.10923767 0.23416056 -0.04900702 -0.010174297
000290 19 59 02 3e 83 f9 48 3e cb ca 0a 3e 55 97 50 3d
       0.127293 0.19626431 0.13553922 0.05092557
0002a0 e7 02 de 3d e2 ba db bc a0 81 21 3e 25 12 9b 3e
       0.10840397 -0.026822511 0.15772104 0.3028728
0002b0 c0 fc 6b 3c 3d 67 0f 3d 00 42 56 3d 05 5b 9e 3e
       0.014403522 0.035010565 0.052309036 0.30928817
0002c0 75 4f ee 3e f2 19 e2 3e 60 e9 f5 bc ab 16 83 ba
       0.46544996 0.4416042 -0.030018508 -0.0010001262
0002d0 20 57 dc 3d 53 00 b3 3d ad 93 97 bd 38 2f 0e 3d
       0.10758805 0.08740296 -0.07401214 0.034713
0002e0 e6 d1 73 bd 34 6b 46 3e fb fb bf 3c 17 44 19 3e
       -0.059526347 0.19376832 0.023435583 0.1496738
0002f0 71 c9 9e 3e e9 ec da bc cc 31 12 bd 27 8b 2b bb
       0.31013063 -0.026724296 -0.03569202 -0.002617547
000300 fe ca c7 3c 4d 05 3f 3d dd 94 af 3d 68 a9 1a 3b
       0.024388786 0.046635915 0.08573315 0.002359951
000310 3f cd 14 be c3 ab 03 be 1b fb 80 bd 7f 76 42 3d
       -0.1453142 -0.1285849 -0.062978946 0.047476288
000320 aa 7f 2d 3e 82 52 a2 bc 4a 58 14 3d 45 bb 7c 3e
       0.16943231 -0.019814733 0.03621701 0.24680813
000330 65 76 2d be 60 c3 f3 3c f5 46 f5 3c 26 dd d6 bd
       -0.16939695 0.029756248 0.029941062 -0.104913995
000340 00 a8 2d bd 48 25 83 be d0 d7 17 3e 9b e4 a4 3e
       -0.042396545 -0.2561438 0.1482842 0.32205662
000350 13 0c 22 3d 14 17 a0 bd cb f5 0c 3d 99 28 c2 3c
       0.039562296 -0.07816902 0.034414094 0.023701
000360 49 9c 88 3e 52 2e df be 83 6e fc 3c 02 80 a6 bd
       0.26681736 -0.43590027 0.030814415 -0.08129884
000370 1f a2 39 3d 4e e0 8a ba 37 ed 0a 3d 11 e2 0e bc
       0.045320626 -0.0010595412 0.033917632 -0.008720891
000380 00 86 00 3d 3d 8f 1a 3e 0a 5f af 3d c4 10 12 bd
       0.031377792 0.15093704 0.08563049 -0.03566052
000390 ea c7 a5 3d 9f 72 19 3d d3 88 53 bc aa 41 26 bd
       0.08094771 0.037462827 -0.012911039 -0.040589966
0003a0 4c 69 13 be 31 31 e5 3c e0 e5 c6 bd 78 1a b9 bd
       -0.14395636 0.027977558 -0.09711814 -0.09038252
0003b0 ac 9f 05 be d3 4b 07 bd b9 c1 aa 3d 44 46 b9 3b
       -0.13049191 -0.033031296 0.08337731 0.0056541283
0003c0 b9 51 83 3f f3 47 f4 bd d4 52 a9 3d af 23 d3 3e
       1.0259315 -0.11927786 0.08267751 0.41238162
0003d0 ef 5a ae 3d 40 3e b1 bb 96 3e ee be f8 93 1a bc
       0.08513438 -0.005409032 -0.46532124 -0.009434693
0003e0 8f 18 47 3e 22 fe fc be 4d a8 c3 bd 8c c1 ac bd
       0.19442962 -0.49412638 -0.09553585 -0.08435354
0003f0 44 78 40 bc 1b 85 0d bb 35 85 33 3f 26 74 96 3c
       -0.011747424 -0.002159423 0.7012513 0.01836593

fc2.bias f4 [128]
000000 89 10 9f bc 14 45 9f bd 08 1d 7c 3d 9f 2e e3 3c
       -0.019417064 -0.077768475 0.061551124 0.027732192
000010 9c 7c 10 bd 2c 3a ff 3c d0 68 1d 3d 98 8f 8d bd
       -0.035275087 0.031155668 0.038430035 -0.06912154
000020 0c 1d 3d bb cd 50 01 bd bd 33 6b 3d 5c 49 cf bc
       -0.0028856425 -0.0315712 0.05742239 -0.025303535
000030 2f dc 6b 3c 45 b1 5d 3c 41 2b 25 3d 75 b1 3f 3d
       0.014395758 0.013531034 0.040324453 0.046800096
000040 84 cb 02 3d 78 b6 9e 3c b7 62 38 bd ca 1c e0 bb
       0.03193237 0.019374117 -0.045016017 -0.0068393694
000050 58 c0 a4 bd d7 86 fd bc ce 53 08 3d 00 76 0c bd
       -0.08044499 -0.030948086 0.033283047 -0.03429222
000060 0c 02 38 3d a0 2e 99 3c c7 6b 16 3d 1d 05 ac 3d
       0.044923827 0.01869899 0.03672388 0.08399413
000070 0a b2 31 3d e4 60 96 bd cf 25 d8 bc 92 e5 37 bc
       0.043382682 -0.07342699 -0.026385216 -0.011224167
000080 48 4d 7a bc 8a aa 38 3d ba a4 64 3c 1f 1c fe ba
       -0.015277214 0.045084514 0.0139552895 -0.0019387043
000090 e0 81 84 3d bd 21 58 bd 23 ee 8e 3c c3 d6 6d bd
       0.06470084 -0.05276655 0.017447537 -0.05806614
0000a0 57 a8 c6 bc 73 af 3a 3d 20 39 5d 3b 47 72 a7 3b
       -0.024250193 0.045577478 0.0033755973 0.0051100585
0000b0 7b 9f c8 bc 85 4f a7 bc 86 24 88 bd bd b5 9e 3c
       -0.024490109 -0.02042366 -0.06647591 0.019373769
0000c0 bf 5d 0c bd 7f ab f4 3c c4 36 b6 3c d4 0d d7 bc
       -0.03426909 0.029866932 0.022242911 -0.026251711
0000d0 4b 3e dd 3c 2e 1b 8d bc 92 d8 8b 3d c9 22 4e bd
       0.027007243 -0.017224874 0.06828417 -0.050326142
0000e0 80 6a 71 bc 9a 2d 34 3d c4 3b d5 3c e7 d8 b9 bd
       -0.014734864 0.0439888 0.026029475 -0.09074574
0000f0 11 1b 2d 3d 4e b0 5e 3d 76 fe 3a bd ff 7d 0d 3d
       0.04226214 0.054367356 -0.04565283 0.034543987
000100 36 2f b4 3c 77 9a c4 3d 90 40 a5 3b 90 59 4f 3d
       0.021995168 0.09599774 0.005043097 0.050622523
000110 ef 9c 48 bd 6d 33 84 3c 20 51 fd bc fa fd 6d 3d
       -0.04897779 0.016137803 -0.030922472 0.05810354
000120 af 0e 42 bb 21 c3 8d 3d d8 2f 5d 3d 7d 75 6a bd
       -0.0029610803 0.069219835 0.054000705 -0.05724095
000130 1c 0e ef 3c d8 b6 93 3d 4b 3b 64 bc 3f 8b 1f 3d
       0.029181533 0.07212609 -0.013930152 0.038951155
000140 a2 27 34 37 21 87 e8 bc f7 32 4a 3c 46 46 41 3d
       1.0738064e-05 -0.028384747 0.0123412525 0.04718616
000150 75 1e a2 39 ad b3 b8 bd bf 40 19 3d ab cc 30 3b
       0.0003092174 -0.090186454 0.037415262 0.002697746
000160 11 07 31 3d 7d 7f 43 3d 2f 76 7a bc 01 01 fb b9
       0.04321963 0.047729004 -0.015286966 -0.000478752
000170 45 07 86 3c d8 ac 66 3d 17 94 6b bc 82 5f 5a bc
       0.016360888 0.05631718 -0.014378569 -0.013328435
000180 4e de 21 bd 19 93 70 3c 11 0c b5 bc ea 0e 24 bd
       -0.039518647 0.014683508 -0.02210048 -0.040053286
000190 93 fb 10 bd f4 4a 78 3d 86 ee 12 bd ae a6 f6 bd
       -0.03539617 0.060618356 -0.035872005 -0.120435104
0001a0 6a 5c 62 3c 97 18 ae 3d 0a 7f fa bc f5 d0 19 3d
       0.013815979 0.08500784 -0.030578155 0.037552793
0001b0 49 e6 31 3c 0a db 2f bd ef 67 b8 3d 96 07 92 3d
       0.010858127 -0.0429335 0.09004199 0.07130353
0001c0 a5 57 06 3d 5e 45 05 bd 90 71 29 3c 9d 60 74 bd
       0.032798428 -0.032536857 0.010342017 -0.05966245
0001d0 2e ab 09 3b f7 c9 cc bc 7a 5b 50 bc 69 66 87 3b
       0.0021006572 -0.024998648 -0.012717122 0.0041320813
0001e0 6d 6e d6 3b 94 84 cd bc 21 eb 38 3c c9 d3 50 bd
       0.0065439255 -0.025087632 0.011286528 -0.050983224
0001f0 f4 b3 1a bd c9 d1 ea 3b 0b 50 5e bd f7 24 47 3c
       -0.037769273 0.0071661216 -0.054275554 0.012154809

fc3.weight f4 [64, 128]
000000 5a 6b 70 bc 39 09 52 3e 0d da d3 bc 92 d6 04 bd
       -0.014674032 0.2051133 -0.02586081 -0.032431193
000010 b7 23 f5 3e ad 74 0f 3c 15 70 be be ec 57 b8 3e
       0.4787881 0.008755845 -0.37194887 0.3600458
000020 8f 99 89 3c 2d d7 31 bd f9 b2 26 3f a3 6a 8d be
       0.016796855 -0.0434181 0.6511684 -0.2762042
000030 ee c1 02 be a2 12 76 bd 8e 45 84 3e 3c 1c 9e 3e
       -0.12769291 -0.060076363 0.25834316 0.30880916
000040 a6 4d 33 be cb 8d 64 3d ed 0d d2 be 75 ff 45 3e
       -0.1751009 0.055799287 -0.4102625 0.1933573
000050 36 bb 17 bf 47 f4 42 bc 79 e6 6f 3e 58 f0 38 bd
       -0.59270036 -0.011899061 0.23427762 -0.045151085
000060 ca a5 30 3d b3 36 83 3d 75 ee 51 3d a3 3b 52 bd
       0.04312686 0.064069174 0.0512528 -0.051326405
000070 4e d4 9f 3d 2a 97 0b bf 10 74 44 3e 79 5e 1c be
       0.07804166 -0.54527533 0.191849 -0.15270413
000080 c3 7a 98 3d 82 4a 08 be 1a 54 82 bd db 25 af bd
       0.0744529 -0.13309672 -0.06363697 -0.08552142
000090 6d 77 47 3d c6 7e 7a 3b a3 bb 54 3d 4b 05 24 3e
       0.048697878 0.0038222536 0.051936757 0.16017644
0000a0 2e 4f 6c 3e d2 2f 24 3f ad 7d d3 3d da 8c 1e 3d
       0.2307708 0.6413547 0.10326705 0.038708545
0000b0 4c a8 c1 3d 04 e8 3b 3f 8f aa ef be e6 46 cc 3e
       0.09455928 0.734009 -0.46809813 0.3989784
0000c0 d9 30 73 3e 42 ac a3 bd fe fc 05 be 3a f4 c8 bb
       0.23749103 -0.0799184 -0.1308479 -0.0061326297
0000d0 bd 8d dd b9 79 ed ae 3c ea ef ba 3d 86 c3 94 be
       -0.00042258008 0.02135347 0.09127791 -0.29055423
0000e0 84 35 a2 be d5 0f 7e be d2 14 5a bd 6b 95 09 3f
       -0.31681454 -0.24810727 -0.053242512 0.5374362
0000f0 b1 84 f5 3d 5f ba 25 be e6 bf ac 3d fe 50 70 bd
       0.119881995 -0.16184376 0.08435039 -0.05867099
000100 2f 62 52 be e4 2d 82 be 65 70 53 3d 91 e7 42 be
       -0.20545267 -0.25425637 0.05162086 -0.19033648
000110 98 d0 fd bd f7 55 48 3b 91 5b dc be bb a4 39 bf
       -0.12393302 0.0030568817 -0.4303861 -0.72516984
000120 fc 08 10 3e 82 e8 86 3c 06 e8 ae 3d 96 dc 84 bd
       0.14065927 0.01646829 0.08540349 -0.06487386
000130 69 2b 00 bc b5 c2 2c 3e ae 36 85 bd 6c f0 21 3e
       -0.00782285 0.1687115 -0.0650457 0.1581437
000140 1f 4b e3 be ed bd 1a 3d 08 fe 9c bd 54 07 a8 3d
       -0.4439325 0.037778784 -0.0766564 0.08204523
000150 7b 40 49 3e d5 4f a5 3e b3 6c 2f 3d 51 45 19 3e
       0.19653504 0.3228747 0.042828273 0.14967848
000160 ae a7 75 3d a3 50 d6 bc b0 7e 1a 3d fc 6d bd be
       0.059974365 -0.026161497 0.037718475 -0.36997974
000170 11 98 23 3e 72 42 78 3c c0 5e 60 3d af 76 17 3d
       0.15975977 0.015152561 0.05477786 0.03697842
000180 42 cf 6d 3e bd f0 ac be f9 98 90 bd b5 bb 04 bd
       0.23223594 -0.3377742 -0.07060427 -0.032405574
000190 ae 88 6f bd f4 df 70 bc f5 6f 3a be 9a 9c 0c be
       -0.058479957 -0.014701832 -0.1820677 -0.13731614
0001a0 65 7b 16 3c 5c 68 35 bd 0d e5 26 3d b2 7e 31 3a
       0.009184693 -0.044288978 0.040745784 0.0006770893
0001b0 60 2a 2a be 1a dc 9c bd a1 39 ae 3e 2c 4a 56 3e
       -0.16617727 -0.076591685 0.34028342 0.20926732
0001c0 b8 c2 f8 bd e8 fe a3 3d a8 4c 43 3d 74 88 d8 3d
       -0.12146515 0.08007604 0.047680527 0.10572901
0001d0 b2 a2 7b be 0d 92 8b 3d 1e 16 94 3d a5 97 30 3e
       -0.24573782 0.06814966 0.07230781 0.17245348
0001e0 a4 c4 59 be 38 c5 61 3e 55 54 79 be 2e ff 84 bd
       -0.21266419 0.22047889 -0.24348576 -0.06493984
0001f0 29 06 99 3e 4c 6b 21 bb 91 f3 a2 bd 66 2a 97 bd
       0.29887512 -0.0024630604 -0.07956613 -0.07381134
000200 50 7a 4c bc fc a4 d4 be 61 9a ea 3b a7 a7 4c bc
       -0.012480333 -0.41532123 0.0071595167 -0.012491143
000210 54 97 51 3e 7d 50 6c be 6c bd 47 be 54 c8 62 3e
       0.20467883 -0.23077579 -0.19505852 0.22146732
000220 8f 9e 8d 3e 80 c1 8e bd af e8 02 be f9 f2 e6 bb
       0.27660033 -0.06970501 -0.12784074 -0.0070480076
000230 97 1c da bd 8f df c1 3d 20 81 83 3d 89 27 d3 3d
       -0.10649984 0.094664685 0.06421113 0.10310275
000240 1a a3 78 3c 39 5e 07 be 27 f4 89 3e 09 bd 9b 3e
       0.015175605 -0.13219537 0.26944086 0.3041766
000250 c7 75 a2 3d cd c6 6c 3e 02 09 4a 3e 08 9a a9 bd
       0.079326205 0.23122711 0.19729999 -0.08281332
000260 32 78 8e 3d ed ab 9b be c4 87 fa bc 3f 74 87 3d
       0.06956519 -0.30404606 -0.030582316 0.06613969
000270 67 cb 98 3d f5 61 09 bd c4 70 f6 be a7 5f c3 3e
       0.07460671 -0.033540685 -0.48132908 0.38158914
000280 da cb 62 bd a1 cd 98 be f6 34 80 bc 95 29 ed bc
       -0.05537019 -0.29844382 -0.015650254 -0.028950492
000290 a3 b5 1c 3d a1 7f bd be b9 2e e2 bc 98 44 2e bd
       0.03825916 -0.37011436 -0.02761017 -0.042545885
0002a0 f4 17 91 3d 3a 59 7b be 6a 3d 88 bd bf 6c b1 3c
       0.07084647 -0.24545756 -0.06652339 0.0216583
0002b0 ab cc 74 be 47 15 8a be 93 b9 5b 3e e5 28 cc bd
       -0.239062 -0.26969358 0.2145751 -0.099687375
0002c0 bc 87 d5 bd 52 eb 0e be a1 fc 91 bd 53 2c 57 ba
       -0.1042628 -0.13956955 -0.07128263 -0.0008208204
0002d0 8d f3 8e bd 7e c8 ad bd 7f fc 72 bd e9 41 8a 3e
       -0.069800474 -0.084855065 -0.05932283 0.2700341
0002e0 4b 69 fc 3d 85 c8 0a 3e c7 fa 62 3e b0 63 61 3e
       0.123247705 0.13553055 0.22165976 0.22010684
0002f0 4a db 9b bd c5 03 c6 bd 81 62 2d 3d 7b 91 29 3e
       -0.076101854 -0.09668688 0.04233027 0.16559403
000300 ad 18 13 3e c8 c8 48 3e bd 7c df 3c 67 8d 4e bc
       0.14364882 0.19607842 0.02728116 -0.012606955
000310 7b 31 b3 3d 69 24 70 3e ab 89 0b 3e e7 b1 7f be
       0.08749672 0.2345139 0.13626735 -0.24970208
000320 6c 2d 33 3e 86 1d f3 3c b7 07 e7 ba c7 36 ae 3d
       0.17497796 0.029677164 -0.00176262 0.08506542
000330 61 b3 ea 3d 0f bc a9 3d 8e 41 55 bc 06 b7 3d be
       0.11459995 0.082878225 -0.013016118 -0.18526849
000340 a8 54 c7 3e a8 36 0a 3e 88 b0 d2 3c 58 85 f6 3d
       0.38931775 0.13497412 0.025718942 0.12037152
000350 7d 3e 44 3e 22 9e 1a bd ac 53 52 3d 2f f6 3e 3e
       0.19164462 -0.037748463 0.051349327 0.18648599
000360 44 72 3a bd 2e 70 46 bc 81 ac 5a 3d 28 cb 90 3e
       -0.04551913 -0.012111707 0.05338717 0.28279996
000370 50 f7 1e 3e b3 b9 b6 3c b7 c9 d5 bc 32 a8 50 bd
       0.1552403 0.022305345 -0.026097162 -0.050941654
000380 a4 c2 86 be b3 a5 50 bd 89 f9 ee 3e fc a8 da 3a
       -0.26320374 -0.050939273 0.46674755 0.0016682441
000390 20 4c 41 3e b5 b7 82 3d ec bd 34 3e d5 1b a0 bd
       0.18876696 0.063826956 0.17650574 -0.078178085
0003a0 0d f8 27 be 53 26 84 bd 64 b0 5e be 61 a0 1e bd
       -0.16403218 -0.06452622 -0.21746975 -0.038727168
0003b0 79 35 aa 3e e1 52 a2 bd 49 5b 2e 3e dd c5 8b 3d
       0.3324392 -0.07925964 0.1702701 0.06824849
0003c0 b9 c5 c7 3d 4b 1c 8c be 05 3e 8c 3c bb 17 03 be
       0.097545095 -0.27365336 0.017119417 -0.12802021
0003d0 8f 4b c2 3d d5 2c 69 3d 00 2c 0d bd 60 5a 2c be
       0.09487068 0.05692752 -0.03446579 -0.1683135
0003e0 2d d8 0d 3e 89 ce 4f 3e 6d 71 01 3d 21 46 88 be
       0.13851996 0.2029363 0.031602312 -0.26616004
0003f0 12 b2 0d 3e 06 49 1c bc 13 81 a8 3d 24 45 4e 3e
       0.1383746 -0.0095388945 0.08227744 0.20143563

fc3.bias f4 [64]
000000 fe 82 bc bd 02 c4 cf bb 01 2c 90 3c ee f2 4a 3d
       -0.09204672 -0.0063405046 0.017599108 0.049548082
000010 6a a1 39 3d f2 28 5f 3d d4 5a 9a 3c 20 6a ae bd
       0.045319952 0.054482408 0.018842138 -0.085163355
000020 27 6b 40 3d e3 7b a0 bc b6 49 3a 3d 62 bf 76 3d
       0.04697719 -0.019590324 0.045480452 0.06024111
000030 c3 bd 6c 3d 91 d5 18 bd f2 de c2 bc ba 6e 2b bd
       0.05779816 -0.037313048 -0.02378795 -0.041853644
000040 af 35 7f bd 53 9c 68 bc 02 cb 94 3c 04 2c 7d bd
       -0.062307056 -0.014197427 0.018163208 -0.061809555
000050 20 08 b3 bc 45 88 53 3d 14 ea af bd f9 57 4f bd
       -0.02185446 0.05164363 -0.08589569 -0.050621007
000060 37 3b 7c bd 41 61 13 bd ed ac 3a 3c 87 ae 01 bc
       -0.06157991 -0.03598142 0.011393768 -0.007915146
000070 8c f2 f3 bc ce b4 38 bd 97 5f 15 3d 8a 6f a3 bd
       -0.029778741 -0.045094304 0.036468115 -0.07980259
000080 73 d8 da ba 8b 63 97 bc a4 30 6e 3b 7d a7 d7 3c
       -0.0016696587 -0.018480083 0.003634491 0.026324982
000090 0f e9 d3 bd 77 b3 5d 3d a0 e2 08 be 51 9f c6 bc
       -0.10347187 0.05412623 -0.133677 -0.02424589
0000a0 aa 67 43 3a ba 2b 61 3d 41 4f 05 bd bc ca b1 bc
       0.0007454107 0.05497334 -0.032546286 -0.021703117
0000b0 24 cf 99 bc 40 8e a9 bd cd 4f 09 bd d9 99 94 bc
       -0.01877553 -0.08279085 -0.03352337 -0.018139767
0000c0 0b 83 31 3e 65 66 ec 3c 2c 93 54 bd 7a fe 05 bd
       0.17335145 0.02885742 -0.051898167 -0.03271339
0000d0 1b f8 84 3c d3 92 e6 bc 4b e5 d2 3c 08 51 01 3d
       0.016231587 -0.028146183 0.025744101 0.031571418
0000e0 0a 84 92 3d be db e2 3d ca 58 aa bd 3f ee 37 3d
       0.07154091 0.11077069 -0.083177164 0.044904944
0000f0 90 ab 1b 3d 84 67 02 3e 1e a7 67 bd db ed 88 3d
       0.03800541 0.127348 -0.05655586 0.06685992

fc4.weight f4 [36, 64]
000000 1d c6 54 3e 6b d9 00 be 30 ae f6 3e 3a 3e bf 3e
       0.20778699 -0.12582938 0.4817977 0.37352163
000010 07 9d 84 3e b6 b8 d7 be 29 7f 4b 3e e7 52 7d bd
       0.25901052 -0.4213311 0.19872727 -0.06184664
000020 39 87 97 3e dd 4c af 3e 38 40 8d 3d 2c 4a 47 bd
       0.29595354 0.3423833 0.068970144 -0.04865472
000030 8a 6f 0f bf 10 02 3b bf 8f 60 03 bf 76 ec 05 bf
       -0.5602957 -0.7305002 -0.5131921 -0.52313936
000040 c1 46 6d bd f6 c1 2a 3d 41 d5 af 3e d4 cd 9d 3d
       -0.057928804 0.04168888 0.34342387 0.07705274
000050 aa 8e e3 be cd 09 40 be d9 f6 86 3e 50 42 71 3e
       -0.44444782 -0.18753739 0.26360205 0.23560452
000060 b0 13 05 3f 78 29 de be 06 ca 88 be e1 42 52 3e
       0.51983166 -0.43391013 -0.26716632 0.20533325
000070 00 59 e9 bd 51 39 47 3f c9 b4 cc 3c aa 0f a9 3d
       -0.113939285 0.7782183 0.024988549 0.08254941
000080 ea 89 27 3e 7b cd 14 bf 13 d2 01 3f 81 80 e5 3e
       0.16361204 -0.5812604 0.5071117 0.44824603
000090 64 4c bc be fe 3a c5 3d 31 64 32 bf 61 3e d5 be
       -0.3677703 0.096303925 -0.6968413 -0.41649154
0000a0 ff 73 96 3d 7a 6a 2f be 5e a4 9c 3e 9d 12 0d 3e
       0.07346343 -0.17130461 0.30594152 0.13776632
0000b0 66 79 6d bd f9 b3 26 bd 1a f3 c8 bd 8f cb cc 3e
       -0.057977103 -0.04069898 -0.09811993 0.39999053
0000c0 2d f3 bc be 90 dd 93 bd e0 f2 8c 3d e1 96 7a 3e
       -0.36904278 -0.07219994 0.06882262 0.24471618
0000d0 19 26 e1 3c 74 74 81 bd 10 ee 09 3f bf a2 70 be
       0.027483987 -0.0632104 0.5387888 -0.23499583
0000e0 ea 87 87 bd 78 9d ab 3e 79 ad 33 3e 0f 31 4d 3e
       -0.066177204 0.33518577 0.17546643 0.20038246
0000f0 f1 4c 3d be 9c e8 00 bf 08 aa b9 bd f4 5a 14 3f
       -0.18486382 -0.50354934 -0.09065634 0.57951283
000100 75 2a bc bd 68 f7 8b bc c4 8d 75 3e 96 92 86 be
       -0.091877855 -0.017085746 0.2397986 -0.2628371
000110 b7 bd dd be c8 9c 5c bb 98 b3 b9 bd f5 48 de 3d
       -0.43308803 -0.0033662785 -0.09067458 0.10853759
000120 03 b1 df 3d 10 c8 37 be 35 70 69 be 1a 95 cb bd
       0.10922434 -0.17947412 -0.2279671 -0.09940548
000130 e3 37 80 be c0 d3 04 3f 51 f6 81 be ee 2f 1f 3d
       -0.25042638 0.51885605 -0.25383237 0.03886407
000140 56 4e 1d bd 4b 6e 0f be 5b 18 0c be 30 e3 bd bc
       -0.038404785 -0.14006917 -0.13681166 -0.02317962
000150 bc f9 db 3d 72 b4 ec 3e a3 9c 6f be 0e 9d af be
       0.107409924 0.4623142 -0.23399596 -0.3429951
000160 b9 03 2b be 66 e4 88 3d 66 85 a2 be 85 30 18 3f
       -0.16700639 0.066841885 -0.317424 0.59449035
000170 a1 39 b7 be e1 da c5 bc 8c 12 f3 bc b8 db fd bc
       -0.35786155 -0.024152221 -0.02967193 -0.03098856
000180 1d b8 79 3e 38 ac 2d 3f 38 dd 6c 3e a7 89 52 bd
       0.2438664 0.6784091 0.23131263 -0.051400807
000190 ee 61 e9 3e 67 8e 51 3b b7 1c 21 bf 61 e2 b9 3d
       0.45582527 0.0031975748 -0.6293444 0.090763815
0001a0 b5 66 aa 3e 89 6c 1d 3f 9e 36 e4 be 1b a2 0a 3e
       0.33281484 0.61493737 -0.4457292 0.13538401
0001b0 cc c6 72 3d 6a 51 27 be 6a dd 09 3d c4 25 20 3f
       0.05927162 -0.16339651 0.033658423 0.62557626
0001c0 ad 50 3c 3d 9b c1 af be df 59 42 3d d5 71 37 3f
       0.045975376 -0.34327397 0.04744899 0.7165807
0001d0 69 6f dd 3d 87 6e 73 3d c8 18 e0 be 82 bd 16 bf
       0.108122654 0.05943158 -0.43768907 -0.58882916
0001e0 09 7f 72 3e 7b 53 7b be 84 d6 a3 bc b1 05 36 be
       0.23681273 -0.24543564 -0.01999975 -0.17775609
0001f0 ad 92 19 3f 3b f8 0b 3d 37 25 7f 3d 37 7d d3 be
       0.59989434 0.034172278 0.06229135 -0.4130647
000200 59 f6 c7 bd b9 58 60 bd 01 1e d1 bc 6d 91 d2 3e
       -0.09763784 -0.054772113 -0.025527002 0.41126576
000210 9b f2 80 be 6d fe a2 3e 55 83 e3 3e b0 34 98 3d
       -0.25185093 0.31834736 0.44436136 0.07431924
000220 2b af 67 3e 99 39 23 3e a4 31 09 3f fe af 98 3c
       0.22625415 0.1593994 0.5359137 0.018638607
000230 53 fd 19 3f 0c f0 11 3e a5 0c c3 be 66 5d 8d 3e
       0.6015217 0.14251727 -0.38095585 0.2761032
000240 25 0b 75 3e 69 eb c2 3e 5c b8 59 3e f2 fb e6 3d
       0.23930033 0.3807023 0.21261734 0.112785235
000250 88 8e 97 3e b8 6a 7c 3e 6a 9a 0d be 28 d3 10 3e
       0.2960093 0.24650085 -0.13828436 0.1414305
000260 73 13 40 3e 3d 64 6c 3e 26 ce a8 be 43 ff 12 3e
       0.1875742 0.23085113 -0.3296978 0.14355187
000270 75 a8 d8 be ad d3 fb bd e4 9a 99 bd 28 7c 37 bd
       -0.42316023 -0.12296233 -0.07500246 -0.04479614
000280 c8 6d 69 3d a8 bd cd be ab fc 79 3b b4 67 62 bd
       0.05698946 -0.4018376 0.0038144987 -0.05527468
000290 66 93 4f bf e4 15 bc 3d 14 b5 25 3e e0 24 04 bf
       -0.8108429 0.09183863 0.16182357 -0.51618767
0002a0 b0 62 f0 3e da 67 11 be 91 cd 13 be 16 98 07 bd
       0.46950293 -0.14199772 -0.14433886 -0.033104025
0002b0 7f 82 ce 3e 25 bb e4 3e 82 dd fe 3d ac d6 54 bf
       0.40333936 0.4467403 0.12444593 -0.83140063
0002c0 02 99 aa bd 81 7c 32 be b7 34 0e 3e c7 cc 5a 3e
       -0.08329965 -0.17430307 0.13887297 0.21367179
0002d0 02 61 64 be 52 93 9d be ed b5 dd be 45 56 15 bf
       -0.2230263 -0.3077646 -0.4330286 -0.5833476
0002e0 b8 46 23 bf 06 63 56 be d0 28 69 bc cd 0b de 3c
       -0.63779783 -0.20936212 -0.014230922 0.027105236
0002f0 d6 69 50 bd 66 90 c4 be 77 1d b7 3d d6 c1 7a be
       -0.050882183 -0.38391417 0.08941167 -0.24488005
000300 31 ab 94 3e 39 c5 91 3e 6b 6e 63 be e3 b2 99 3e
       0.2903686 0.2847078 -0.2221009 0.30019292
000310 e1 69 a0 3e a5 90 c1 3d 65 09 0d bd 9a 7f 92 bd
       0.3133078 0.09451417 -0.034432787 -0.07153244
000320 8a 55 04 bf 7b 1e 83 be a4 e4 c7 3d c4 c2 32 bd
       -0.5169302 -0.25609192 0.097604066 -0.043642774
000330 6b 1e 25 3c db 34 2f 3e 43 91 92 bd 28 1c 88 3e
       0.010078053 0.17110007 -0.07156613 0.26583982
000340 6b 51 36 3f 4a 59 9f 3d d5 e8 96 bd 40 f3 2e 3c
       0.71217984 0.077807024 -0.07368628 0.0106781125
000350 6f 3e b3 be 4e d0 d4 3e 7b da bb 3d 1d 69 a0 bd
       -0.3500857 0.41565174 0.09172531 -0.07832549
000360 58 45 a4 3e ab 1f 19 3e e5 08 ae be d7 59 a9 3d
       0.32084155 0.14953487 -0.3399116 0.08269089
000370 49 c9 36 be 32 1d 86 3e df fd 07 3e b0 57 43 bd
       -0.17850222 0.2619415 0.13280438 -0.047691047
000380 e1 67 13 3e 89 5a cd 3c a4 75 9c be 73 f0 8d 3e
       0.14395095 0.025067585 -0.30558503 0.2772251
000390 dd 5d ec 3e d1 34 84 3e 55 00 9e 3e cd 46 08 bf
       0.46165362 0.25821546 0.30859628 -0.53233033
0003a0 27 46 8e 3e f9 f8 21 3e 7e cb 0c 3f e0 64 91 be
       0.27787897 0.15817632 0.54998004 -0.28397274
0003b0 49 de 30 be b5 ce 2b 3e d9 dc 53 3c 72 c4 7e be
       -0.17272295 0.16778071 0.012931072 -0.24879625
0003c0 7d 5b 47 bf e6 82 b1 bd c5 ab e3 be 24 8c 11 3e
       -0.77873975 -0.08667545 -0.44466987 0.14213616
0003d0 41 4b d0 be a8 27 0d 3e a2 82 dc 3e ef 9d 1c bf
       -0.40682414 0.13784659 0.43068415 -0.6117849
0003e0 e7 9f 99 3c b4 96 3a bf 51 aa 20 3e 1b 94 c5 3e
       0.018753005 -0.72886205 0.1568997 0.38589558
0003f0 cc 32 ff 3e 1d 88 9b be 18 33 19 3c 0d 7d cc be
       0.49843442 -0.30377284 0.009350561 -0.39939156

fc4.bias f4 [36]
000000 7d 03 10 be df ef c4 bd e2 46 86 3c 8a d1 bf 3d
       -0.1406383 -0.09616064 0.016391221 0.09366138
000010 63 c7 93 bd b1 38 68 bd 00 5b 92 bc 5d bb d1 bd
       -0.072157644 -0.05669469 -0.017865658 -0.10240815
000020 2c 66 5f 3c 2e 7d b0 3d c0 67 69 3d 17 f8 2f be
       0.0136351995 0.08617626 0.05698371 -0.17184483
000030 6b e3 0f be bf 7b ab 3b 42 1f 0b 3d 51 22 94 be
       -0.14051597 0.0052332575 0.033965357 -0.2893243
000040 98 2c 85 bb 4d ef bb 3c 0d 3c 3b bd 49 b5 31 be
       -0.004064154 0.022941256 -0.045711566 -0.17354311
000050 7d fb 48 be 9e 56 92 3d a1 53 58 bd 99 a5 1a be
       -0.19627185 0.07145427 -0.05281413 -0.15102233
000060 ef 22 07 bd 3b f1 99 3d 74 50 84 be 34 c7 4b bd
       -0.0329923 0.07516714 -0.2584263 -0.04975052
000070 b1 1e 43 be b4 4c 78 bd 04 6e 65 be 97 70 b9 3d
       -0.19054677 -0.060620025 -0.22405249 0.09054678
000080 57 74 50 bd cf c3 1a be e6 cf 97 bd 13 b4 f1 bd
       -0.0508922 -0.15113758 -0.074127 -0.118019246
