turbo_ml/meta_learning/meta_model/model/model.pth (torch, 202728 bytes, 8 tensors)

fc1.weight f4 [256, 24]
0	0x3deff45e	0.11716531
1	0xbde71715	-0.112836994
2	0x3db86999	0.09004516
3	0x3d8a916a	0.06766017
4	0x3d0aabbd	0.03385519
5	0xbdf94605	-0.12171558
6	0xbe30cbd9	-0.17265262
7	0xbe0444c5	-0.12916858
8	0x3dd0bb24	0.10191944
9	0xbe116ed1	-0.1420243
10	0xbc380cf5	-0.011233558
11	0xbd6f81b8	-0.05847332
12	0xbcef7614	-0.029231109
13	0x3c621b8c	0.013800513
14	0xbe625842	-0.2210398
15	0xbc8976e3	-0.016780322
16	0xbd088fd4	-0.03334029
17	0x3e55d5d8	0.20882356
18	0xbcbf4078	-0.02334617
19	0x3df0cc3e	0.11757706
20	0xbe4caca3	-0.1998773
21	0x3ceb669b	0.02873545
22	0x3d8e0e39	0.069363065
23	0x3c561e95	0.013068815
24	0xbe070f70	-0.13189483
25	0xbd8cd713	-0.0687696
26	0xbc2a0ed2	-0.01037951
27	0x3e391326	0.18073711
28	0x3e1fd45a	0.1560835
29	0xbd8eac78	-0.069664896
30	0xbde6b3d4	-0.11264768
31	0x3d219ba7	0.039455082
32	0x3da1a32b	0.0789245
33	0x3df66416	0.12030809
34	0x3e228354	0.1587041
35	0xba07307f	-0.0005157068
36	0xbd2d3f8e	-0.04229694
37	0xbcaacd6a	-0.020849902
38	0x3d2a66a4	0.041601792
39	0xbe240fc1	-0.16021635
40	0xbe3d6ad6	-0.18497786
41	0x3e439dff	0.1910324
42	0xbc0ae066	-0.008476352
43	0x3dc07f0a	0.09399231
44	0x3dbeaae8	0.093099415
45	0xbe1e6d22	-0.15471318
46	0x3e44ed36	0.19231114
47	0xbe185fec	-0.14880341
48	0x3d40a65c	0.047033653
49	0xbdfa816e	-0.12231718
50	0xbc9c25a2	-0.019060913
51	0x3e1206b6	0.14260373
52	0xbe3411ff	-0.1758499
53	0x3c859cba	0.016310085
54	0x3e30b5e1	0.17256881
55	0xbe108aa7	-0.14115392
56	0x3ae34d44	0.0017341753
57	0x3d38d71e	0.045127027
58	0x3de3f21b	0.11130162
59	0x3d8ecb5b	0.06972381
60	0x3dc1b787	0.09458833
61	0x3ddda324	0.10822132
62	0xbe4db7e1	-0.20089675
63	0x3d9ae419	0.075630374
64	0xbe077278	-0.1322726
65	0x3d6fdbaf	0.058559116
66	0xbda6da1a	-0.08147068
67	0x3d9ef67f	0.07761859
68	0x3ccd7204	0.025078781
69	0x3cf13e60	0.029448688
70	0x3e40e64c	0.18837851
71	0xbd3c0d75	-0.04591127
72	0x3daf2a1c	0.085529536
73	0xbe29cb71	-0.16581513
74	0xbb9961bb	-0.00468084
75	0xbda231e0	-0.07919669
76	0xbdeb8581	-0.11500073
77	0xbe07c91d	-0.13260312
78	0x3da9aac0	0.08284521
79	0xbe1814fd	-0.14851756
80	0xbe025f12	-0.12731579
81	0x3db80173	0.089846514
82	0x3de6f860	0.112778425
83	0x3d296f6a	0.04136602
84	0x3e4ac57b	0.19801895
85	0xbe4f2aeb	-0.20231216
86	0x3cef96de	0.029246744
87	0xbe0aaba4	-0.13542038
88	0x3e2653d5	0.16242917
89	0xbe29964e	-0.16561243
90	0xbe3f1b10	-0.18662667
91	0x3e091657	0.13387428
92	0x3e29d1f4	0.16583997
93	0x3e2f2f66	0.17107925
94	0x3e2aef5d	0.16692872
95	0xbbfdfd4d	-0.007751143
96	0x3da20262	0.07910611
97	0xbde96139	-0.11395497
98	0x3ddf1d6d	0.108942844
99	0xbe17cb2f	-0.14823602
100	0xbd75a825	-0.05997481
101	0xbe3eaaf4	-0.18619901
102	0xbe31bbf5	-0.17356856
103	0xbd10fd4c	-0.035397813
104	0xbe2b703b	-0.16742031
105	0xbcfce382	-0.030870203
106	0x3e0d6fa8	0.13812125
107	0x3e332909	0.17496122
108	0x3d91ae11	0.07113279
109	0x3dbd5463	0.09244611
110	0x3e1cbc7c	0.15306276
111	0xbb81143e	-0.0039391806
112	0xbdf6316f	-0.120211475
113	0x3d783b9d	0.060603727
114	0x3d179e05	0.037015934
115	0xbdf77411	-0.12082685
116	0xbe31a24f	-0.17347072
117	0x3e4b3bf1	0.19847085
118	0xbcc14e54	-0.02359692
119	0xbe21cb2d	-0.15800162
120	0x3babaec3	0.005239339
121	0x3d7ed914	0.06221874
122	0x3e35f7b2	0.1777027
123	0x3c6726cb	0.01410837
124	0xbe06a198	-0.1314758
125	0xbd9b395c	-0.075793
126	0xbda2a2c5	-0.07941202
127	0xbdea99c4	-0.1145511
128	0x3de3023d	0.11084411
129	0x3e34f32b	0.17670886
130	0x3e3b357e	0.18282124
131	0xbdaffab6	-0.08592741
132	0x3c3efe1b	0.011657263
133	0x3e172000	0.14758301
134	0xbd001d75	-0.031278092
135	0xbdb8532e	-0.0900024
136	0xbd0662e5	-0.032809157
137	0x3a8cc99e	0.0010741239
138	0x3e719005	0.23590095
139	0xbd7f6ede	-0.06236159
140	0xbe4ff7a9	-0.20309319
141	0xbe2f72b5	-0.17133601
142	0x3d35c649	0.044378553
143	0xbd4122b9	-0.047152255
144	0xbe27202c	-0.16320866
145	0xbd9920f1	-0.07476986
146	0x3e176a69	0.14786686
147	0x3dee1631	0.116253264
148	0x3b983d16	0.004645954
149	0xbda571ed	-0.0807837
150	0xbe3e2dd1	-0.18572165
151	0x3e37f7ec	0.17965668
152	0x3dd6ebbc	0.104941815
153	0xbe0b60e2	-0.13611177
154	0xbe3d1433	-0.18464737
155	0xbe11adb8	-0.14226425
156	0x3dfe9f2b	0.12432703
157	0x3e5e482d	0.2170722
158	0x3e4e4e25	0.20146997
159	0x3d147ea4	0.036253586
160	0x3e065a02	0.13120273
161	0xbe9745e6	-0.29545516
162	0x3e60d27f	0.21955298
163	0xbe0f5230	-0.13996196
164	0xbc9d8683	-0.01922918
165	0xbe4c6158	-0.19959009
166	0xbda0b6d8	-0.07847375
167	0x3dc9e9fd	0.09859083
168	0xbd9ec877	-0.077530794
169	0xbdf0ea0f	-0.11763393
170	0x3daac5a1	0.08338476
171	0xbddd7f9c	-0.10815355
172	0xbde8aa5b	-0.11360618
173	0xbc426df1	-0.011867032
174	0xbe03e759	-0.12881221
175	0x3e43da6e	0.19126293
176	0x3d1ec901	0.03876591
177	0xbe4983c3	-0.1967917
178	0xbe331a9f	-0.17490624
179	0xbe479f74	-0.1949442
180	0x3deaa004	0.11456302
181	0x3e85d595	0.26139513
182	0xbdb662a1	-0.08905531
183	0xbdfa447e	-0.12220095
184	0x3e5e55cf	0.21712421
185	0x3e34665d	0.17617173
186	0x3cbb8c9e	0.0228942
187	0x3d8dd3d5	0.069251694
188	0x3da5003a	0.08056684
189	0x3e397f9a	0.18115082
190	0x3dd27027	0.102752976
191	0xbe4a6a3d	-0.19767089
192	0x3df6937b	0.120398484
193	0xbdf7a056	-0.120911285
194	0xbd7aaf07	-0.061202075
195	0x3e3f9cec	0.18712205
196	0x3d61ace0	0.055096507
197	0xbc46cf4c	-0.012134384
198	0x3d906b04	0.070516616
199	0xbe237c9d	-0.15965505
200	0x3e359919	0.17734183
201	0x3b437281	0.0029822888
202	0xbe1fff03	-0.15624623
203	0xbdf94099	-0.12170524
204	0xbe3a53cd	-0.1819603
205	0xbe2bd4a9	-0.16780342
206	0xbdce7dda	-0.10082598
207	0x3e1a290d	0.15054722
208	0xbdf9fdb1	-0.12206591
209	0x3e311b06	0.17295465
210	0x3de9af82	0.114104286
211	0x3d6694da	0.0562943
212	0xbe209597	-0.15682064
213	0x3df148dd	0.11781476
214	0x3d06d065	0.032913584
215	0x3c9aa586	0.018877756
216	0xbd315146	-0.0432904
217	0xbc063e99	-0.008193635
218	0x3c957863	0.018245881
219	0xbdb070e2	-0.08615281
220	0xbd9982af	-0.07495629
221	0xbe34d843	-0.17660622
222	0xbd21b3be	-0.039478056
223	0xbddc6357	-0.10761135
224	0x3e2bc67c	0.16774935
225	0x3df9c35d	0.12195466
226	0x3d8dfad9	0.06932611
227	0x3e1da86d	0.1539628
228	0xbd9a5313	-0.075353764
229	0x3e3135e1	0.1730571
230	0xbe382e02	-0.179863
231	0xbbd60224	-0.006531017
232	0xbd5f2fa7	-0.054488804
233	0x3b813ea4	0.003944235
234	0xbd6ecdd5	-0.058301765
235	0x3e3b4bd0	0.18290639
236	0x3e41e9da	0.18936864
237	0x3b1f5d7a	0.002431719
238	0x3e085bf7	0.13316332
239	0xbcec8daa	-0.028876144
240	0x3e00744d	0.12544365
241	0xbdc8272b	-0.09773096
242	0xbd2cd741	-0.04219747
243	0x3cde000b	0.02709963
244	0x3e1c3a4f	0.15256618
245	0x3c95902e	0.018257227
246	0xbe44aa9e	-0.1920571
247	0xbdfa1c5a	-0.12212439
248	0xbdfe20d8	-0.12408608
249	0xbd355f6f	-0.044280466
250	0x3de3cd23	0.11123111
251	0xbdd36c1b	-0.10323354
252	0xbc13d2fc	-0.009022471
253	0x3d540210	0.05175978
254	0xbdea22c3	-0.114324115
255	0xbd1e2341	-0.03860784

fc1.bias f4 [256]
0	0x3e427353	0.18989305
1	0x3d33dbe2	0.04391087
2	0xbdbf2e56	-0.0933501
3	0xbdfb55dc	-0.12272236
4	0x3dc9f20a	0.098606184
5	0xbde3b700	-0.11118889
6	0xbc1b064d	-0.009461951
7	0xbdab2501	-0.08356667
8	0xbe462cd2	-0.19353035
9	0xbdfe1c97	-0.12407797
10	0xbe165ddf	-0.14684246
11	0x3e60bcba	0.21946993
12	0x3cc1c4e4	0.023653455
13	0x3e35747c	0.17720217
14	0xbe4d4533	-0.20045929
15	0xbdca00e5	-0.09863452
16	0x3d2cd426	0.042194508
17	0xbd4a8650	-0.049444497
18	0x3e2ef29a	0.17084733
19	0xbd714691	-0.058905188
20	0x3b2a10d1	0.0025949965
21	0x3d891c29	0.06694824
22	0x3dad727d	0.084691025
23	0xbdf7f8ac	-0.12107977
24	0x3e5c7bf9	0.21531667
25	0x3d5f64ec	0.054539606
26	0x3e5491b2	0.20758703
27	0x3df0cc83	0.117577575
28	0x3e39af97	0.18133388
29	0xbd755532	-0.0598957
30	0x3d970f16	0.07375924
31	0xbe26e1a8	-0.16297019
32	0x3e34d724	0.17660195
33	0x3cba2cc4	0.022726424
34	0xbdf64b2b	-0.12026056
35	0xbe5df58e	-0.21675703
36	0x3d36692e	0.0445339
37	0xbddd4ab7	-0.10805266
38	0x3d51a03d	0.051178206
39	0x3df8bdb6	0.121455595
40	0x3dbae3ef	0.09125506
41	0x3e2561fa	0.16150656
42	0x3e5c57a3	0.21517806
43	0xbda24080	-0.07922459
44	0xbdb73e57	-0.08947437
45	0x3e045ee5	0.12926824
46	0xbd6b35ea	-0.057424463
47	0xbdba34df	-0.090921156
48	0xbe194636	-0.1496819
49	0x3e46ab9c	0.19401401
50	0x3ac7fcc9	0.0015257831
51	0xbca62297	-0.020280166
52	0x3cb7d378	0.022439703
53	0xbdfd7558	-0.12375897
54	0xbe3cc61e	-0.1843495
55	0x3e2fcae1	0.17167236
56	0x3e28d5b8	0.16487777
57	0x3e430081	0.19043161
58	0x3bededd5	0.007261018
59	0xbd84994a	-0.0647455
60	0xbd9e0775	-0.07716266
61	0x3e39a784	0.18130308
62	0xbdedd33d	-0.11612556
63	0x3e64136f	0.22273038
64	0x3e3ded19	0.18547477
65	0x3dc634c1	0.09678031
66	0xbd2f230c	-0.042758033
67	0x3e606348	0.21912873
68	0xbd98560a	-0.07438286
69	0x3e59a264	0.21253353
70	0x3e108efd	0.14117046
71	0xbd4ffcc4	-0.050778165
72	0xbda68352	-0.08130516
73	0x3de68f3f	0.11257791
74	0x3df561e3	0.11981561
75	0xbe0890f0	-0.1333654
76	0xbdb25204	-0.087070495
77	0xbe3474c6	-0.1762267
78	0x3c8a7c54	0.016904987
79	0x3e3c0dff	0.18364714
80	0x3e4fcdea	0.20293394
81	0x3dfeefe8	0.12448102
82	0x3caecb33	0.021337127
83	0x3e1b28e1	0.15152313
84	0xbd9785ce	-0.07398568
85	0xbd734b9d	-0.059398282
86	0xbce5f17a	-0.028069247
87	0x3e48307b	0.19549744
88	0x3d9f1542	0.077677265
89	0x3d7d927c	0.061907277
90	0x3d6b862d	0.057501007
91	0x3da71ab2	0.081593886
92	0xbda97542	-0.08274318
93	0x3d0c305b	0.034225803
94	0xbc394175	-0.01130711
95	0x3df642dc	0.12024471
96	0xbc1604be	-0.009156404
97	0x3dc9ad6d	0.098475315
98	0xbd9c8703	-0.07642939
99	0x3ddeedaa	0.108851746
100	0xbd2f3399	-0.042773817
101	0x3e0491d3	0.12946253
102	0xbe38d728	-0.18050826
103	0x3dab0b53	0.08351769
104	0xbc4b8dce	-0.012423946
105	0xbde8c7ab	-0.11366209
106	0x3e681159	0.22662868
107	0x3de177b5	0.110091604
108	0x3de1dc1b	0.1102831
109	0xbdb05885	-0.08610634
110	0x3e4987bf	0.1968069
111	0x3a8851b1	0.0010400322
112	0x3b23aa86	0.0024973466
113	0x3d75e4e8	0.060032755
114	0x3e265b4c	0.16245764
115	0x3de83bcf	0.113395326
116	0x3d0ad4f0	0.03389448
117	0x3dc0774b	0.09397753
118	0xbe29ea9d	-0.16593404
119	0x3e2cf962	0.16892007
120	0xbe259985	-0.16171844
121	0xbcf5ded4	-0.03001348
122	0x3db6058e	0.08887778
123	0x3ddead4c	0.108728975
124	0xbc978f8d	-0.018501068
125	0xbdeb8363	-0.114996694
126	0x3df38e22	0.11892344
127	0x3e2b55ba	0.16731921
128	0x3d7019aa	0.058618225
129	0x3e5660a7	0.20935307
130	0xbdfe4b8a	-0.12416752
131	0x3e36c362	0.1784797
132	0x3dbd4e6e	0.09243475
133	0xbe2a6073	-0.16638355
134	0xbb2aeab5	-0.0026079838
135	0xbdb019e0	-0.08598685
136	0xbd8dd861	-0.069260366
137	0x3deeaaa5	0.116536416
138	0x3e340441	0.17579748
139	0x3ddc71ef	0.107639186
140	0x3d2f383a	0.04277823
141	0x3c857d79	0.016295182
142	0x3e54fb66	0.20799026
143	0xbe3c3297	-0.18378673
144	0x3e3fc0ed	0.18725939
145	0x3d286de1	0.041120414
146	0xbe206a63	-0.15665583
147	0xbde67e86	-0.11254601
148	0xbdf91094	-0.12161365
149	0x3d0b99b7	0.03408214
150	0xbe471f02	-0.19445422
151	0x3d938f15	0.07205025
152	0x3df0c8e4	0.11757067
153	0xbe2e51a0	-0.17023325
154	0xbe12796f	-0.14304136
155	0x3e35d07c	0.17755312
156	0x3cfcee6f	0.030875413
157	0x3c8776aa	0.016536076
158	0x3e551add	0.20811029
159	0x3e427826	0.18991145
160	0xbdb62e36	-0.08895533
161	0xbbf829c4	-0.007573338
162	0xbe217aae	-0.15769455
163	0xbdf5b97a	-0.119982675
164	0x3d8cecb0	0.06881082
165	0xbd075ae0	-0.03304565
166	0x3dc61b8b	0.09673222
167	0x3e0a2851	0.13491942
168	0xbd170ea2	-0.03687919
169	0x3e07b93a	0.13254252
170	0xbdbf92bb	-0.093541585
171	0x3d5f5c53	0.054531407
172	0xbe23e944	-0.16006953
173	0x3ddb8675	0.10719005
174	0x3e545574	0.20735723
175	0xbe3ec52e	-0.18629906
176	0x3c9bb5e6	0.019007634
177	0x3e263762	0.16232064
178	0xbd4b6895	-0.049660284
179	0x3dfe7c98	0.12426108
180	0xbd371047	-0.044693258
181	0xbd75ac71	-0.059978906
182	0xbdb5b608	-0.0887261
183	0xbc8aefb1	-0.016959997
184	0xbd5454b3	-0.051838588
185	0xbdc2c1cc	-0.0950962
186	0x3d9e7bc3	0.077384494
187	0x3db6988e	0.08915816
188	0x3de3e709	0.11128051
189	0xbe3eb9e4	-0.18625599
190	0xbe467829	-0.19381775
191	0x3e0db637	0.1383904
192	0x3e5f4bdf	0.21806286
193	0x3e6e1e19	0.23253669
194	0xbe20247a	-0.15638915
195	0x3e4158a1	0.18881465
196	0xbdf4bfab	-0.1195062
197	0x3e44ecab	0.19230907
198	0xbe374b6a	-0.17899862
199	0xbdaf4d28	-0.08559638
200	0x3d00fa36	0.03148862
201	0x3a15fbc4	0.0005721415
202	0x3daa88ae	0.08326851
203	0xbbeb6e13	-0.0071847527
204	0x3d7045ae	0.0586602
205	0x3ccb5515	0.024820844
206	0xbd8a0719	-0.06739635
207	0xbe1923bc	-0.14955038
208	0x3e42c20a	0.19019333
209	0xbdb7074b	-0.08936938
210	0xbe2ab6cf	-0.16671298
211	0x3e59936f	0.21247648
212	0x3d6d07a3	0.05786861
213	0x3ce1b1e7	0.02755065
214	0x3e685f8f	0.22692703
215	0xbe3e444a	-0.18580738
216	0x3be2e077	0.006923731
217	0x3e1a4bcd	0.15067978
218	0xbe014067	-0.12622224
219	0xbe188bbc	-0.14897054
220	0x3d9897d1	0.07450832
221	0x3e22dc77	0.15904413
222	0x3e5e3f5e	0.2170386
223	0x3de71f02	0.11285211
224	0xbd157786	-0.03649094
225	0x3e29cb44	0.16581446
226	0x3cd77e48	0.026305333
227	0xbe389c61	-0.18028404
228	0x3dd69c2b	0.104790054
229	0xbde01ad5	-0.10942618
230	0xbe21ac05	-0.15788276
231	0xbdcc74c8	-0.09983212
232	0xbd555edb	-0.052092414
233	0xbc7066d2	-0.014672952
234	0xbe0c536d	-0.137037
235	0x3e3c7fef	0.18408178
236	0x3c4f2310	0.012642637
237	0x3e280913	0.16409712
238	0x3d853730	0.06504667
239	0xbbdf01f9	-0.006805655
240	0x3ca33780	0.019923925
241	0x3dce7da1	0.100825556
242	0xbd1a3118	-0.037644476
243	0x3dff33a4	0.124610215
244	0x3d9b0b9d	0.075705744
245	0x3d5483f3	0.05188365
246	0x3c4ed7e5	0.012624715
247	0xbe47cf62	-0.19512704
248	0xbe05d226	-0.13068447
249	0x3e1048a3	0.14090209
250	0xbd0d457e	-0.0344901
251	0x3c315de6	0.01082561
252	0x3d216803	0.039405834
253	0x3e45d9e4	0.193214
254	0x3e2225a1	0.15834667
255	0xbe0fac24	-0.1403051

fc2.weight f4 [128, 256]
0	0x3c869484	0.01642824
1	0xbd8cae06	-0.0686913
2	0xbc50b128	-0.01273755
3	0xbced2f54	-0.028953232
4	0x3d04f6df	0.032461997
5	0xbcc810d9	-0.024422096
6	0x3c515d3b	0.0127785755
7	0xbc7d3496	-0.015454432
8	0x3d3aa2bc	0.04556535
9	0xbb580be3	-0.003296607
10	0xbcfe6da8	-0.031058148
11	0xbd0fea99	-0.03513584
12	0xbc8d203e	-0.017227288
13	0x3d7108cf	0.05884629
14	0xbcb0ce5c	-0.021582775
15	0xbe498c5f	-0.19682454
16	0x3d1f0338	0.03882143
17	0xbd1ee5b7	-0.038793292
18	0x3c3fd19a	0.011707688
19	0x3c99506d	0.018715108
20	0xbe4a359d	-0.19747014
21	0x3e2a5f60	0.16637945
22	0x3d294116	0.041321836
23	0xbd195d18	-0.037442297
24	0x3d7c2e87	0.06156781
25	0x3beffdca	0.007323955
26	0x3d1db45e	0.03850209
27	0x3c281dc0	0.010260999
28	0x3c84bc2f	0.016203014
29	0x3dc0a4f9	0.09406466
30	0xbe04242a	-0.1290442
31	0x3d2c34b8	0.042042464
32	0xbd07aa47	-0.033121374
33	0xba2e60f6	-0.00066520215
34	0x3cd55ec0	0.026046157
35	0x3b22bd42	0.0024832045
36	0x3d2bbcb9	0.041928027
37	0xbd77142c	-0.06032197
38	0x3d6aedb1	0.057355586
39	0x3d26cf45	0.04072501
40	0xbc862a1a	-0.016377497
41	0xbc95611b	-0.01823478
42	0xbb822f01	-0.0039728885
43	0xbd25f466	-0.04051628
44	0xbdee7be8	-0.11644727
45	0x3bb1b85e	0.0054235896
46	0xbd1adba0	-0.037807107
47	0x3c8043dc	0.015657358
48	0xbc81bf61	-0.015838327
49	0x3c8dbefe	0.017302986
50	0x3c973c24	0.018461294
51	0x3dc443db	0.09583255
52	0xbdbd550c	-0.09244737
53	0xbd7846c5	-0.060614366
54	0xbdcffe5e	-0.101559386
55	0xbc3e360f	-0.011609568
56	0x3c8f8c07	0.017522825
57	0xbca6753a	-0.02031957
58	0x3b130fa0	0.0022439733
59	0x3c43a2c8	0.011940666
60	0xbd604797	-0.054755773
61	0x3dbfc821	0.093643434
62	0xbd563e6e	-0.05230563
63	0x3c524c33	0.01283555
64	0xbd416f31	-0.04722518
65	0x3da48cec	0.08034691
66	0x39e298c3	0.00043219895
67	0x3d9c8ec1	0.07644416
68	0x3d7c376f	0.061576303
69	0x3dca9e4a	0.098934725
70	0xbd7d04c1	-0.06177211
71	0xbd4883bc	-0.048953757
72	0x3cc5f736	0.02416573
73	0xbb53446c	-0.0032236828
74	0xba8bfcb9	-0.0010680176
75	0xbc26f658	-0.010190569
76	0xbc5bd038	-0.013416342
77	0xb9214c00	-0.00015382469
78	0xbd0cd7f1	-0.034385625
79	0x3bfce92a	0.007718225
80	0x3d14df24	0.036345616
81	0xbd6ec7df	-0.05829608
82	0x3ce5e446	0.02806295
83	0x3b490eb4	0.003067893
84	0xbc2e7fc2	-0.010650577
85	0xbd597576	-0.053090535
86	0x3c9ab848	0.0188867
87	0xbca50d90	-0.020148069
88	0x3d83ca73	0.064350985
89	0x3ccecfda	0.025245596
90	0x3d893783	0.06700041
91	0xbb995dce	-0.004680372
92	0xbd87641c	-0.06610891
93	0xbc5b246a	-0.013375381
94	0x3d4b2f7c	0.04960583
95	0x3c146c00	0.009058952
96	0x3ba8bb1b	0.005149258
97	0xbd1f6b40	-0.03892064
98	0x3d0ecb5a	0.0348619
99	0xbd36cfb5	-0.04463168
100	0x3d42303f	0.047409292
101	0x3c8646ed	0.016391242
102	0x3d938fd4	0.072051674
103	0xbd2e0739	-0.042487357
104	0x3d564ae5	0.05231752
105	0x3de68381	0.11255551
106	0xbb810039	-0.003936794
107	0x3d2cfe55	0.042234737
108	0xbc79e141	-0.015251459
109	0xbd7d8133	-0.061890792
110	0xbd80df9e	-0.062926516
111	0x3d5201eb	0.05127136
112	0x3d968687	0.07349878
113	0x3d2e6cd5	0.04258426
114	0x3d80fd06	0.062982604
115	0xbd35dd6d	-0.04440062
116	0x3cef318e	0.029198434
117	0x3dcd2ba8	0.100180924
118	0xbc51126b	-0.012760739
119	0xbc566e37	-0.013087801
120	0x3d7fa262	0.06241072
121	0xbdc4b221	-0.09604288
122	0x3d2a6163	0.04159678
123	0x3d611cd3	0.05495913
124	0x3d7275b6	0.05919429
125	0xbc12da00	-0.008963108
126	0x3d26181c	0.040550336
127	0xbd28ebfe	-0.041240685
128	0x3cb93448	0.022607937
129	0xbc319ee8	-0.010841109
130	0xbd2e7630	-0.04259318
131	0x3d136d48	0.03599289
132	0xbcf386af	-0.029727308
133	0xbda275de	-0.07932638
134	0xbcf4e8b8	-0.029896125
135	0x3d5cf8ef	0.05394834
136	0x3c42c595	0.011887928
137	0xbd0d8626	-0.034551762
138	0xbcfe3c38	-0.031034574
139	0x3d191ecf	0.037382897
140	0x3de24a50	0.1104933
141	0x3d6942dc	0.056948528
142	0xbd3aecb2	-0.045635886
143	0xbd5c654a	-0.053807534
144	0x3d9d00f0	0.076661944
145	0xbd11a8f3	-0.035561513
146	0xbc9ddd5c	-0.019270591
147	0x3d5e0f92	0.054214068
148	0x3cddf2a0	0.027093232
149	0xbdafe4eb	-0.085885845
150	0xbcf7799c	-0.030209355
151	0xbd239e04	-0.039945617
152	0xbd98a795	-0.07453839
153	0xba93a90e	-0.0011265592
154	0x3d6c4372	0.05768151
155	0x3bb82416	0.005619536
156	0xbd29e422	-0.04147733
157	0x3db2562f	0.087078445
158	0x3d215df8	0.039396256
159	0x3da535bb	0.08066889
160	0xbd8241be	-0.063601956
161	0x3c7b4168	0.015335418
162	0x3ddcfa22	0.107898965
163	0xbd1a85c1	-0.037725214
164	0xbd5da0b8	-0.05410835
165	0xbdd1dbaa	-0.10246976
166	0xbd7e671e	-0.06211006
167	0xbde04bae	-0.10951935
168	0x3d351820	0.04421246
169	0xbad8acfd	-0.0016531047
170	0xbbdcb260	-0.006735131
171	0x3dbc0c0f	0.091819875
172	0xbc5f46a0	-0.013627678
173	0x3d9fceb1	0.07803095
174	0x3d921397	0.07132643
175	0x3c972463	0.018449968
176	0x3d1a09b7	0.03760692
177	0x3d36244d	0.044468213
178	0xbdd951a0	-0.10611272
179	0x3c03b4b8	0.008038692
180	0xbd23eedc	-0.040022716
181	0xbc5b3449	-0.013379165
182	0xbe0c5f4d	-0.1370823
183	0x3d5d5c6e	0.054043226
184	0xbcee9ac7	-0.029126538
185	0x3d34c50e	0.04413324
186	0x3d909f39	0.07061619
187	0x3d823acd	0.063588716
188	0xbdf4a65d	-0.11945794
189	0xbd70f2fc	-0.058825478
190	0xbce98dc4	-0.028509982
191	0xbdc65561	-0.096842535
192	0x3daf7af2	0.08568372
193	0xbda76279	-0.08173079
194	0xbda6713d	-0.08127067
195	0x3d8c6c8a	0.0685664
196	0xbd707edc	-0.058714733
197	0xbb2bcf09	-0.0026215932
198	0x3d44dc52	0.048061676
199	0xbd3392a5	-0.043841023
200	0xbe0dcfcf	-0.13848804
201	0xbd1291ee	-0.0357837
202	0x3dad2828	0.08454925
203	0xbe3dbe63	-0.18529658
204	0xbd01ee81	-0.031721596
205	0x3b657a7f	0.003501564
206	0xbe1de92a	-0.15420976
207	0xbd0e3cc6	-0.034725927
208	0xbd8c1638	-0.068401754
209	0x3dda2a19	0.10652561
210	0xbc772c60	-0.015086263
211	0xbb9f311d	-0.0048581497
212	0x3d9101a2	0.070803896
213	0x3d4ec868	0.05048409
214	0xbdb70f0f	-0.08938419
215	0x3d73ca3a	0.05951903
216	0xbc4f9bb8	-0.012671404
217	0xbbed8d73	-0.007249528
218	0xbc98582f	-0.018596737
219	0x3c049af5	0.008093585
220	0x3c9438a9	0.018093424
221	0xbc1bb391	-0.009503261
222	0x3cbdc755	0.023166338
223	0xbc28f298	-0.010311745
224	0xbca6da6e	-0.020367827
225	0xbd09d3a7	-0.033649113
226	0xbde01bd9	-0.109428115
227	0xbd41579c	-0.04720269
228	0xbd88e0b8	-0.06683487
229	0xbc8840a4	-0.016632386
230	0x3d7dfbf5	0.062007863
231	0xbe50abbe	-0.20378014
232	0xbd0ab22c	-0.033861324
233	0xbc5d99f0	-0.013525471
234	0xbb8d315a	-0.0043088617
235	0x3cabce90	0.02097252
236	0xbd8e57e6	-0.06950359
237	0x3d1cf358	0.03831801
238	0x3d8380da	0.06421061
239	0xbd862a94	-0.0655109
240	0xbd35f99c	-0.0444275
241	0x3d2227e8	0.03958884
242	0xbc13dd40	-0.009024918
243	0xbd46bbff	-0.04851913
244	0xbca7905e	-0.020454582
245	0x3c431470	0.011906728
246	0x3d9f48d9	0.077775665
247	0xbc13d0c8	-0.009021945
248	0xbb8d0da0	-0.0043046027
249	0x3d9677f2	0.073470965
250	0x3d0ef5ce	0.034902386
251	0x3d099fac	0.03359954
252	0xbcce9258	-0.025216267
253	0x3d5d99a5	0.054101605
254	0x3da1cafd	0.07900045
255	0xbdb8620c	-0.09003076

fc2.bias f4 [128]
0	0x3c70d6dc	0.014699664
1	0xbd8aed74	-0.06783572
2	0xbd1e2cdb	-0.038616996
3	0x3b719160	0.0036860332
4	0xbd227bdb	-0.0396689
5	0xbce5ab0c	-0.028035663
6	0x3baf0873	0.0053415834
7	0x3cae1508	0.021250263
8	0x3d9d90a3	0.07693603
9	0xbc75b454	-0.014996607
10	0x3d87608b	0.06610211
11	0xbc866e60	-0.016410053
12	0xbd5feaa2	-0.054667123
13	0xbcdbf198	-0.0268486
14	0x3c7ae596	0.015313527
15	0xbd155834	-0.03646107
16	0x3b154596	0.0022777072
17	0x3c001712	0.007818
18	0x3d1c0fb1	0.038100902
19	0xbce0b740	-0.02743113
20	0x3c087246	0.008328026
21	0xbcf16810	-0.029468566
22	0x3d18e70e	0.037329726
23	0x3c3e0d66	0.011599874
24	0x3d8ee4a4	0.069772035
25	0x3d55f415	0.052234728
26	0x3ca8bc29	0.020597534
27	0x3d026880	0.03183794
28	0xbd277d02	-0.0408907
29	0x3d4ac1af	0.049501117
30	0xbcc03d34	-0.023466684
31	0x3d3b781c	0.045768842
32	0xbc1d3d4e	-0.009597136
33	0x3d3144f2	0.043278642
34	0xbcf36f68	-0.029716209
35	0xbd0408ce	-0.03223496
36	0x3d25afdf	0.040450927
37	0x3d47b726	0.04875865
38	0xbb3054ee	-0.002690609
39	0xbd49e79d	-0.04929315
40	0x3d024959	0.03180823
41	0x3d688758	0.0567697
42	0xbd324fbc	-0.043533072
43	0x3d43b3d7	0.04777893
44	0x3d337048	0.04380825
45	0x3ba5c0ff	0.0050584073
46	0xbd53b6d6	-0.051688038
47	0xbb7fdf3b	-0.0039042968
48	0xbc9e735e	-0.01934212
49	0xbd6cab2d	-0.057780433
50	0x3d40cf66	0.04707279
51	0xbae295e8	-0.0017287107
52	0xbc9a965a	-0.018870521
53	0xbcb47849	-0.022030013
54	0x3c79d34f	0.015248134
55	0xbc298817	-0.010347388
56	0x3d1bec5c	0.038067207
57	0x3d5fb5d2	0.054616757
58	0x3d21c83a	0.03949759
59	0x3d7143ea	0.05890266
60	0x3d43cf87	0.047805335
61	0x3c9156ce	0.017741587
62	0xbc097784	-0.008390311
63	0x3cf75b1c	0.030194812
64	0x3d56e58f	0.052465018
65	0xbd21665e	-0.039404266
66	0x3da8bae2	0.0823877
67	0x3d834d99	0.06411285
68	0xbd0a44b2	-0.03375692
69	0xbd779e80	-0.06045389
70	0xbd0182df	-0.03161895
71	0xbd321a4a	-0.043482102
72	0x3dac7aab	0.084218346
73	0x3bb62dbb	0.0055596507
74	0xbd19eef4	-0.0375814
75	0x3cfe7999	0.031063842
76	0x3c95fc96	0.018308919
77	0x3d5432d5	0.05180629
78	0x3ca8b6c5	0.020594964
79	0xbcf64074	-0.03006003
80	0xbcc192eb	-0.023629626
81	0x3c2613ee	0.010136588
82	0xbc1a8bf0	-0.009432778
83	0xbc7355f0	-0.014852032
84	0xbc879e11	-0.016554864
85	0xbc5df3fa	-0.013546938
86	0x3c97abb1	0.018514486
87	0xbd4d4262	-0.050112136
88	0xbc127949	-0.008940049
89	0x3d2effd6	0.042724453
90	0x3d30653d	0.0430653
91	0xbc9f9db0	-0.019484371
92	0x3c268fa0	0.010166079
93	0x3d999bac	0.07500395
94	0x3d0bf137	0.034165587
95	0xbd3584f2	-0.04431624
96	0x391a0800	0.00014689565
97	0x3c16e62b	0.00921015
98	0xbd528ade	-0.051401965
99	0x3a375e83	0.00069949793
100	0x3d88de44	0.06683019
101	0x3d6d59b7	0.057946887
102	0x3d7b0175	0.061280686
103	0xbcbd38d9	-0.023098396
104	0xbb5d15d3	-0.0033734932
105	0x3c7a6c41	0.015284599
106	0x3d98e6de	0.074659094
107	0xbcd47247	-0.025933398
108	0xbd38d32d	-0.045123268
109	0xbce9488a	-0.028476972
110	0xbba1e896	-0.0049410565
111	0xbd34db91	-0.044154707
112	0xbca1f260	-0.019768894
113	0xbd4a73d8	-0.049426883
114	0xbd35d9ce	-0.044397168
115	0x3c8a7773	0.016902661
116	0x3d25bb6a	0.040461935
117	0xbd400f23	-0.046889435
118	0xbd59e226	-0.053194188
119	0xbd80420d	-0.06262598
120	0x3d2fe82c	0.042946026
121	0x3c6bf040	0.014400542
122	0xbccd741d	-0.025079781
123	0xbc9e1556	-0.019297283
124	0xbc99e656	-0.01878659
125	0xbaee5985	-0.0018184638
126	0x3bc1f584	0.0059191603
127	0x3be39947	0.0069457623

fc3.weight f4 [64, 128]
0	0x3cc2b999	0.02377014
1	0x3d355093	0.044266295
2	0x3cde4080	0.027130365
3	0xbccea01e	-0.025222834
4	0xbcea3c47	-0.028593196
5	0x3c9432cc	0.018090628
6	0xbdb5e832	-0.08882178
7	0x3c858ec3	0.016303426
8	0x3d16b256	0.03679117
9	0x3d8141c4	0.06311372
10	0x3d6b77d1	0.057487313
11	0xbca956d1	-0.02067128
12	0xbc840577	-0.016115887
13	0xbb1878a6	-0.0023265271
14	0xbd6ec767	-0.058295634
15	0xbcccb2de	-0.024987634
16	0xbd92b36f	-0.071631305
17	0xbda57ccb	-0.08080443
18	0xbd2f517f	-0.04280233
19	0xbb055170	-0.002034273
20	0x3c9c248b	0.019060394
21	0xbc23b2c5	-0.009991352
22	0x3c1a9179	0.009434097
23	0xbcde73b1	-0.027154775
24	0xbc9ce51d	-0.019152218
25	0xbd15396a	-0.036431707
26	0xbd46e1cf	-0.04855519
27	0xbd519585	-0.051167984
28	0x3d60833a	0.054812647
29	0x3c3ec85c	0.011644449
30	0xbda39898	-0.07988089
31	0xba8d33e5	-0.0010772912
32	0xbd8df891	-0.06932176
33	0xbd8ddc5b	-0.06926795
34	0x3d5b4223	0.05352987
35	0x3d33c66e	0.04389041
36	0xbd807286	-0.062718436
37	0x3d9e1f3f	0.077208035
38	0x3d8ad6d6	0.06779258
39	0x3c8808f2	0.016605828
40	0xbd1ce52a	-0.038304485
41	0x3d5fdb20	0.054652333
42	0xbcfbebf6	-0.030752163
43	0xbdd3d5ad	-0.1034349
44	0x3ae7e4e6	0.0017692118
45	0x3d0a4695	0.03375872
46	0xbd8684bc	-0.06568286
47	0xbcc7e617	-0.024401708
48	0x3d4f456d	0.05060332
49	0x3c8f74a7	0.017511679
50	0xbbee3b50	-0.007270254
51	0xbc90c117	-0.017670197
52	0x3d573b20	0.05254662
53	0xbd850e62	-0.06496884
54	0x3d9ea148	0.07745606
55	0x3d9f0d63	0.07766225
56	0xbbcc29aa	-0.0062305527
57	0x3d82ca98	0.06386298
58	0xbc1fd2b1	-0.009754823
59	0x3daa50c3	0.08316185
60	0x3d84d576	0.06486027
61	0x3d19dd50	0.037564576
62	0xbda8996f	-0.0823239
63	0xbddf352a	-0.10898812
64	0x3d1f3ca7	0.038876202
65	0x3cf67b6d	0.03008815
66	0xbd823fed	-0.06359849
67	0x3c30ae9d	0.010783819
68	0x3c471206	0.012150293
69	0x3d3610fa	0.044449784
70	0xbb14874d	-0.0022663653
71	0xbda9e248	-0.08295113
72	0xbda6713a	-0.08127065
73	0xbc86aea9	-0.016440706
74	0xbc02799a	-0.007963562
75	0xbd88da97	-0.06682318
76	0xbd8436c7	-0.064557604
77	0xb9d6a281	-0.00040938336
78	0x3d7e2aba	0.062052466
79	0xbd214d7d	-0.03938054
80	0x3ddd7476	0.10813229
81	0x3b916f97	0.0044383514
82	0x3d8e16c7	0.06937938
83	0xbce1424d	-0.027497435
84	0xbcb8e5e7	-0.022570563
85	0xbd6bb105	-0.057541866
86	0x3c1ae7ea	0.009454707
87	0x3c55b562	0.013043733
88	0xbda8aa1f	-0.08235573
89	0xbc6f61ff	-0.014610766
90	0x3d94463d	0.072399594
91	0xbd9e72a5	-0.077367105
92	0x3cf3511a	0.029701758
93	0xbd106d05	-0.03526022
94	0x3a8bc1bb	0.0010662595
95	0x3db4de49	0.0883146
96	0x3cd4bb87	0.025968326
97	0x3d7afead	0.061278034
98	0xbc751562	-0.014958711
99	0xbc44226e	-0.011971099
100	0x3d96a84f	0.07356321
101	0x3da1d665	0.07902221
102	0xbd46a770	-0.048499525
103	0x3aa0d8a1	0.0012271592
104	0x3d4304e8	0.0476121
105	0xbd7a0afc	-0.06104563
106	0xbd98e767	-0.074660115
107	0x3ace2162	0.0015726502
108	0x3d45adee	0.048261575
109	0x3d55b00f	0.052169856
110	0xbda50460	-0.08057475
111	0xbccd275c	-0.025043182
112	0x3d3c01da	0.045900203
113	0x3da6e28c	0.08148679
114	0x3c812a56	0.015767258
115	0x3d9047bc	0.07044932
116	0xbbf65505	-0.0075174593
117	0xbdb71f2f	-0.08941495
118	0xbce83a28	-0.028348044
119	0xbca2a9a1	-0.019856276
120	0xba2b1109	-0.0006525671
121	0x3d9c8f86	0.076445624
122	0xbd271612	-0.040792532
123	0xbd9684b2	-0.07349528
124	0xbd7a8f6e	-0.06117194
125	0x3c12f014	0.008968372
126	0x3d5ffe34	0.054685786
127	0x3c6ffaec	0.014647227
128	0x3db07c00	0.08617401
129	0xbba1237a	-0.004917559
130	0x3db22c76	0.086998865
131	0x3d89ad73	0.06722536
132	0x3d331f5b	0.043731075
133	0x3d517371	0.051135484
134	0x3d89923e	0.067173466
135	0xbd37ba22	-0.044855244
136	0xbe02b867	-0.12765656
137	0x3d41eb5d	0.0473436
138	0x3dba4d54	0.090967804
139	0x3d0005a4	0.03125538
140	0x3ddea609	0.108715124
141	0xbd3ab7d7	-0.04558548
142	0xbd77294c	-0.06034212
143	0x3d929b32	0.071585074
144	0xbdc56dd7	-0.09640091
145	0xbcad3c6d	-0.021146977
146	0x3d0992a2	0.033587106
147	0xbd964859	-0.07338018
148	0x3c4c1502	0.0124561805
149	0x3d4ce5f4	0.050023988
150	0x3db8cbf7	0.09023278
151	0x3d7114d3	0.05885775
152	0xbd8b8cd6	-0.06813972
153	0x3cb724c7	0.022356404
154	0xbd471eae	-0.048613243
155	0x3c9a3092	0.018821988
156	0x3dd9c820	0.10633874
157	0x3d6174fb	0.055043202
158	0xbd299c95	-0.041409094
159	0xbd5d950d	-0.054097224
160	0xbd2c37de	-0.042045467
161	0x3d183b5c	0.037165985
162	0xbd040d02	-0.032238968
163	0x3cce3273	0.02517054
164	0x3d075108	0.03303626
165	0xbdc56a8c	-0.09639463
166	0x3db7f447	0.08982139
167	0x3daad629	0.08341629
168	0x3d06642a	0.032810368
169	0xbdfbfab1	-0.12303675
170	0x3ca322da	0.01991408
171	0x3df0e4da	0.117624
172	0x3b61fbb0	0.0034482293
173	0x3e025034	0.12725908
174	0xbaf6a8fd	-0.0018818673
175	0xbd8d59b4	-0.06901875
176	0x3d6e69cc	0.058206365
177	0x3d9096f8	0.07060045
178	0x3d9d4a6a	0.07680209
179	0xbde40753	-0.111342095
180	0xbd48d029	-0.049026642
181	0x3d6319f9	0.05544469
182	0xbd772e0d	-0.06034665
183	0x3cb0b61d	0.021571213
184	0xbd160fef	-0.03663629
185	0x3c8494ec	0.016184293
186	0xbd7bc3b4	-0.061465934
187	0xbd00602c	-0.031341717
188	0x3d37a159	0.044831607
189	0x3d74714f	0.059678372
190	0xbd4dbe97	-0.05023059
191	0xbc3fbb29	-0.011702337
192	0x3da85cf1	0.08220852
193	0x3db245f5	0.087047495
194	0xbd90c303	-0.070684455
195	0x3d509c3c	0.050930247
196	0x3d8c93f6	0.06864159
197	0xbd913c75	-0.070916094
198	0x3b73a845	0.0037179154
199	0x3d69b26d	0.057054926
200	0x3ddbbc62	0.107292905
201	0x3c608e12	0.013705747
202	0xbdb3ee6f	-0.08785712
203	0xbd98c641	-0.07459689
204	0xbd83aa75	-0.064289965
205	0x3ca07631	0.019587608
206	0x3c2415fd	0.010015008
207	0xbd42d3e0	-0.04756534
208	0x3df666a8	0.12031299
209	0xbd1ebb28	-0.038752705
210	0x3d353812	0.044242926
211	0x3c9b1724	0.018931933
212	0xbc236c26	-0.009974515
213	0x3b8bdaa3	0.004268007
214	0xbca355c1	-0.019938352
215	0xbd7b5175	-0.06135698
216	0xbd82869d	-0.06373332
217	0xbd3c2751	-0.045935933
218	0xbce0bc31	-0.027433487
219	0xbd6a8144	-0.057252184
220	0x3d936e4d	0.071987726
221	0xbc886eb7	-0.016654355
222	0xbd92c137	-0.07165759
223	0xbd87232e	-0.06598507
224	0xbdaf1c8c	-0.08550367
225	0x3dafcfab	0.085845314
226	0x3e104664	0.14089352
227	0xbbdea2cd	-0.0067943097
228	0x3daccd36	0.084375784
229	0xbd22a722	-0.03971017
230	0xbe364119	-0.1779827
231	0xbd3e951b	-0.046528917
232	0x3d8a8e9e	0.06765483
233	0x3bfad2c8	0.0076545216
234	0xbe2c6bec	-0.16838044
235	0x3d9b0add	0.075704314
236	0x3dd5673b	0.1042008
237	0xbc6b0809	-0.014345177
238	0x3cc53eea	0.024077851
239	0x3e14c392	0.14527729
240	0xbb46636a	-0.0030271658
241	0xbbc3e78c	-0.0059785303
242	0xbcc6f3c0	-0.024286151
243	0xbd3beee3	-0.045882117
244	0x3d299694	0.041403368
245	0xbd48e485	-0.04904606
246	0xbcd9601b	-0.026535084
247	0xbd7439e2	-0.059625514
248	0x397b9ae1	0.00023994922
249	0x3d3713f4	0.044696763
250	0xbbd02d06	-0.0063530235
251	0xbd8b316d	-0.067965366
252	0x3db2864b	0.087170206
253	0x3886dfa7	6.4312764e-05
254	0xbe8a25bf	-0.26981923
255	0x3d194d80	0.037427425

fc3.bias f4 [64]
0	0xbd9bbd57	-0.07604473
1	0x3c8eaf0d	0.017417455
2	0xbdb3648a	-0.08759411
3	0xbb81f95a	-0.0039664926
4	0xbd13cb39	-0.03608248
5	0xbd05df1d	-0.03268348
6	0xbd44ba90	-0.048029482
7	0x3b69e0e0	0.0035687014
8	0x3dbc6be9	0.0920027
9	0xbd417209	-0.047227893
10	0x3a4c8acc	0.0007802665
11	0xbcc397ed	-0.023876155
12	0xbc2e9a26	-0.010656869
13	0x3c9d63d7	0.019212646
14	0xbda4f5ae	-0.08054672
15	0x3d7387d3	0.059455704
16	0xbd713e79	-0.05889747
17	0xbcd5ac4a	-0.02608313
18	0x3bf04ec0	0.0073336065
19	0xbd9a296d	-0.075274326
20	0x3cd2b117	0.025719209
21	0xbc5f5f3f	-0.013633548
22	0xbd1fe4fa	-0.03903673
23	0xbd806b1a	-0.06270428
24	0xbd62f63f	-0.05541062
25	0x3d4e788d	0.050407935
26	0x3d58c2c8	0.052920133
27	0x3d815ce3	0.06316545
28	0x3ba6653e	0.005077987
29	0x3de7c451	0.11316741
30	0x3db49fa9	0.08819515
31	0xbca4a38c	-0.020097516
32	0xbca5f11c	-0.020256571
33	0x3d3322fa	0.043734528
34	0x3ba9c04a	0.0051803933
35	0xbd0ba384	-0.034091488
36	0xbdbecb6e	-0.09316145
37	0x3cd14ecd	0.02555027
38	0x3c51f937	0.012815765
39	0x3d673b25	0.05645289
40	0xbc5ebd75	-0.013594975
41	0x3d918960	0.0710628
42	0x3d8e0325	0.069341935
43	0xbd694035	-0.056946
44	0x3dad6682	0.084668174
45	0x3d1d94d6	0.03847202
46	0x3ba743bb	0.0051045096
47	0x3ca93f39	0.02066003
48	0x3d611504	0.054951683
49	0x3dd89aae	0.10576378
50	0xbb0cda09	-0.0021492264
51	0xbc647656	-0.013944229
52	0xbcef07ce	-0.029178526
53	0xbd8bbe18	-0.06823367
54	0x3d2f22aa	0.042757668
55	0x3cd032de	0.02541488
56	0x3ca3cffe	0.01999664
57	0x3daee39b	0.08539506
58	0xbdaee6b7	-0.08540099
59	0xbd07d0d3	-0.033158135
60	0x3da3b700	0.07993889
61	0x3d91b28f	0.071141355
62	0x3d9c3939	0.07628102
63	0x3d97656f	0.07392394

fc4.weight f4 [38, 64]
0	0x3d18ec2f	0.037334617
1	0x3e084f92	0.13311604
2	0xbccaa390	-0.024736196
3	0x3dcf5142	0.101229206
4	0x3d3c66ea	0.045996584
5	0x3dd62080	0.10455418
6	0xbda32188	-0.0796538
7	0xbdedf138	-0.116182745
8	0x3dbdc656	0.09266345
9	0xbb66a3ae	-0.0035192776
10	0xbdb287ad	-0.08717284
11	0x3c92d7d7	0.017925186
12	0xbdb356ba	-0.08756776
13	0x3ddb708e	0.107148275
14	0x3d0f2d98	0.03495559
15	0x3d76f0bc	0.060288176
16	0xbd916b56	-0.07100551
17	0xbd9d9091	-0.076935895
18	0x3e68eafb	0.22745888
19	0xbdfe405a	-0.12414618
20	0x3dfd5071	0.123688586
21	0x3d71126f	0.05885547
22	0xbd8b5e59	-0.06805105
23	0x3dd26cfe	0.10274695
24	0x3da92531	0.08259047
25	0xbd62358a	-0.05522684
26	0x3b0d148d	0.0021527142
27	0x3cb7ac44	0.02242101
28	0x3e3aaef3	0.182308
29	0xbc8d5092	-0.017250333
30	0x3d4f7736	0.050650798
31	0x3de6745b	0.11252662
32	0x3da0316b	0.07821926
33	0xbd945622	-0.07242991
34	0xbdee1e49	-0.1162687
35	0x3d366c0e	0.044536643
36	0xbd020c58	-0.031750053
37	0xbdf14525	-0.117807664
38	0xbc737f7a	-0.014861936
39	0xbcbec0b2	-0.023285244
40	0xbac06e68	-0.0014681341
41	0xbd4b04c7	-0.049565103
42	0x3d828189	0.06372363
43	0x3de4d4aa	0.11173375
44	0xbdb2256c	-0.08698544
45	0x3d9ce548	0.076609194
46	0xbd3fb274	-0.046801046
47	0xbde2dc8b	-0.110772215
48	0x3d0c888d	0.034309912
49	0x3d0b64e7	0.034031775
50	0xbd35d439	-0.044391844
51	0xbd718ca3	-0.058972012
52	0xbcc62df0	-0.024191827
53	0xbcb07df8	-0.021544442
54	0x3d43ae8f	0.047773894
55	0x3dfda452	0.12384857
56	0xbc01df53	-0.00792678
57	0xbc838a04	-0.016057022
58	0x3ce8c160	0.02841252
59	0xbe051bfb	-0.12998955
60	0x3e0cff19	0.13769187
61	0x3e146aca	0.14493862
62	0xbe11d534	-0.14241487
63	0x3d003e15	0.031309206
64	0x3c3bbe10	0.011458889
65	0x3e05d7d8	0.13070619
66	0xbb7d4700	-0.0038647056
67	0xbd92b824	-0.07164028
68	0x3d0b2f1b	0.03398047
69	0xbe1510f3	-0.14557247
70	0x3d83eb28	0.06441337
71	0x3d1307df	0.03589618
72	0x3ca3761a	0.019953776
73	0xbcd208a6	-0.02563889
74	0x3d1a4884	0.037666813
75	0xbd10373d	-0.03520893
76	0xbdb966e3	-0.09052827
77	0x3e1e3550	0.15450025
78	0x3de59faa	0.11212094
79	0x3d735090	0.059403002
80	0x3dde21dc	0.10846302
81	0x3d42c123	0.04754747
82	0xbdbf24d7	-0.093331985
83	0xbd9ac42f	-0.0755695
84	0x3dbf2a7f	0.09334277
85	0xbdba238a	-0.0908881
86	0xbd66c5b2	-0.05634088
87	0x3da0f99c	0.07860109
88	0xbdd5f6f6	-0.10447495
89	0x3dbf0814	0.09327713
90	0x3de2c0f3	0.110719584
91	0x3cab60e1	0.020920219
92	0x3deb1d56	0.11480205
93	0x3dfb8857	0.12281864
94	0x3da6c9b4	0.081439406
95	0x3d401025	0.046890397
96	0xbdddd7f2	-0.10832204
97	0x3d25eb55	0.040507633
98	0xbe25b207	-0.16181193
99	0x3d931fdc	0.07183811
100	0x3e0380a2	0.12842038
101	0x3dea3b12	0.11437048
102	0xbd8fd4c6	-0.07023005
103	0x3e039caf	0.12852739
104	0xbd7c6c9d	-0.06162702
105	0x3ccfaa70	0.025349826
106	0x3dc673b1	0.09690035
107	0xbdb562d0	-0.088567376
108	0xbc0ceee5	-0.008601879
109	0xbe00dc69	-0.1258408
110	0xbdb9402a	-0.090454414
111	0xbd7a66e9	-0.0611333
112	0x3e0419ff	0.12900542
113	0x3ce25155	0.027626673
114	0x3dfbfe6a	0.12304385
115	0x3defc542	0.11707546
116	0xbba9fc40	-0.0051875412
117	0xbdc179a4	-0.09447029
118	0x3c63d033	0.013904619
119	0x3d238246	0.03991916
120	0xbdbf4eda	-0.093412116
121	0xbddd2794	-0.107985646
122	0x3db9d4c6	0.090737864
123	0xbda4bd9b	-0.08043977
124	0x3d5fea4a	0.054666795
125	0xbc721edc	-0.014777865
126	0xbd8e2ef2	-0.06942548
127	0xbb547523	-0.0032418452
128	0xbcfa0882	-0.030521635
129	0x3e1da62b	0.1539542
130	0x3c688480	0.014191747
131	0xbdce74d8	-0.1008088
132	0x3d6b4122	0.057435162
133	0xbdaaf029	-0.08346588
134	0xbb6059c0	-0.0034233183
135	0xbdc86b7a	-0.097861245
136	0x3dce1793	0.1006309
137	0xbcbacea5	-0.022803614
138	0xbd935bd8	-0.07195252
139	0x3db1d2f5	0.08682815
140	0x3e00e303	0.12586598
141	0x3d86a3c6	0.06574206
142	0x3d10d86c	0.035362646
143	0xbdc46d61	-0.09591175
144	0xbd55c460	-0.05218923
145	0xbd945927	-0.07243567
146	0xbde664ce	-0.11249696
147	0x3d1ba595	0.03799971
148	0xbd2fc1d3	-0.042909455
149	0x3ce5c1d5	0.028046528
150	0x3b619480	0.0034420788
151	0xbdcabb78	-0.09899038
152	0xbd803bd9	-0.06261415
153	0x3d83550c	0.06412706
154	0x3dad55f8	0.08463663
155	0xbd9731f4	-0.07382575
156	0xbd0d3289	-0.034472022
157	0x3e409839	0.18808068
158	0xbc4f5601	-0.012654782
159	0x3d5ee42b	0.054416817
160	0x3c9d5632	0.01920614
161	0xbd2ec303	-0.042666446
162	0x3e077ef9	0.1323203
163	0xbb766ce8	-0.0037601534
164	0xbd78e5a9	-0.060765896
165	0xbe09058b	-0.1338102
166	0xbd31ff1e	-0.04345619
167	0x3cd13873	0.025539612
168	0x3dee09c7	0.11622959
169	0xbd152bfb	-0.036418896
170	0xbd7b0df9	-0.061292622
171	0x3c956598	0.01823692
172	0xbc32ee5d	-0.010921088
173	0xbd08d732	-0.03340835
174	0x3e04b1af	0.12958406
175	0x3d395ea8	0.045256287
176	0xbdce6e46	-0.10079627
177	0x3e01dddb	0.12682287
178	0xbca72ff0	-0.0204086
179	0x3e19e057	0.15026985
180	0xbd9cddd4	-0.07659498
181	0x3cb161a8	0.021653011
182	0x3d9f0281	0.077641495
183	0x3dca6d8e	0.09884177
184	0x3e25559d	0.1614594
185	0xbc923ad4	-0.017850317
186	0xbd5f19a8	-0.054467827
187	0xbdd2914b	-0.10281619
188	0x3d2fa834	0.04288502
189	0x3d4fa387	0.05069306
190	0xbd0b6c3e	-0.034038775
191	0xbdc0d206	-0.09415059
192	0xbd5365ff	-0.051610943
193	0x3e2b3b9e	0.16721961
194	0x3d8f9380	0.07010555
195	0x3d5c2440	0.05374551
196	0xbd14d497	-0.036335554
197	0x3d4c8d9a	0.04993973
198	0xbdc19e96	-0.09454076
199	0xbde31bc8	-0.11089283
200	0x3c26acfe	0.0101730805
201	0xbdec7088	-0.11544901
202	0x3d997242	0.07492496
203	0xbc92b6e4	-0.017909475
204	0xbd7a4211	-0.061098162
205	0x3df1c4ba	0.11805101
206	0xbd6133e4	-0.054981127
207	0xbd4521af	-0.048127826
208	0x3d55b404	0.05217363
209	0xbd36bb28	-0.04461208
210	0xbd149763	-0.036277186
211	0xbd9f9f71	-0.07794083
212	0x3de7c253	0.11316361
213	0xbc91f2df	-0.017816005
214	0x3d2f7327	0.042834427
215	0x3db415b8	0.08793205
216	0xbde1d45f	-0.11026835
217	0x3db6f843	0.08934071
218	0x3dbf1a2f	0.09331166
219	0x3d6d921c	0.05800067
220	0x3e4bde59	0.19909038
221	0xbe4a9b09	-0.19785704
222	0x3d7d2c28	0.06180969
223	0x3d81a154	0.06329599
224	0xbd2ce4bc	-0.042210326
225	0x3d06290b	0.032753985
226	0xbd57d186	-0.05269005
227	0x3e00bb73	0.12571506
228	0x3d81cc0d	0.06337748
229	0x3d4bad2f	0.049725708
230	0x3d2b5045	0.041824598
231	0x3d60f7a9	0.054923687
232	0xbb8ff83d	-0.004393606
233	0x3da34e82	0.079739586
234	0x3d70c7a1	0.05878413
235	0x3d5e3144	0.054246202
236	0xbdc3f5f3	-0.095683955
237	0x3dd0404a	0.10168512
238	0x3d803b15	0.06261269
239	0x3cc9b99d	0.02462464
240	0x3d31044c	0.04321699
241	0xbde4f8bb	-0.11180254
242	0x3e237848	0.15963852
243	0xbd381422	-0.044941075
244	0x3ddb47f4	0.10707083
245	0xbdb3cc56	-0.08779208
246	0xbdc49a41	-0.09599734
247	0xbe22e330	-0.15906978
248	0xbd7e3888	-0.06206563
249	0x3e63d821	0.22250415
250	0xbda39d7b	-0.079890214
251	0xbdde6bb1	-0.10860384
252	0x3de97419	0.11399097
253	0xbde741ec	-0.112918705
254	0xbe4b5ece	-0.19860384
255	0x3a4ddf51	0.0007853406

fc4.bias f4 [38]
0	0xbc93ffbe	-0.018066283
1	0xbdb8fc95	-0.09032551
2	0x3cb6670c	0.022265933
3	0xbd01c70a	-0.03168396
4	0x3e06ac8e	0.13151762
5	0x3d7a47e0	0.0611037
6	0x3daa629c	0.083195895
7	0x3da486d0	0.08033526
8	0x3da266e2	0.079297796
9	0x3b950ce3	0.0045486554
10	0x3d5b94f7	0.05360886
11	0x3d8cac7d	0.06868837
12	0x3da242d0	0.079229
13	0xbc2f8cae	-0.010714693
14	0xbd2a8be7	-0.041637328
15	0xbc91c2b8	-0.017793044
16	0xbc50111b	-0.012699391
17	0x3b6235ee	0.0034517008
18	0xbd17509f	-0.03694212
19	0xbd856bd9	-0.06514711
20	0xbd0caa10	-0.03434187
21	0x3d4a7e18	0.04943666
22	0x3dd05357	0.10172146
23	0xbc8d710f	-0.017265825
24	0xb9680b6a	-0.00022129496
25	0xbcbd7966	-0.023129176
26	0x3dc67f90	0.09692299
27	0xbd5856c2	-0.052817114
28	0x3dae44b2	0.08509196
29	0xbdbb704c	-0.09152278
30	0x3d0072c3	0.031359445
31	0xbdc32441	-0.09528399
32	0xba875b0d	-0.0010326818
33	0x3d90b1df	0.07065176
34	0x3cf532aa	0.029931385
35	0x3dd8ec66	0.105919644
36	0x3c1a2909	0.009409198
37	0x3c9485d2	0.018130217
