turbo_ml/meta_learning/model/model.pth (torch, 219112 bytes, 8 tensors)

fc1.weight f4 [256, 40]
0.13617809 -0.09164787 0.03215786 0.026784338 -0.15557046 0.0022188057 0.009328778 0.102846816
-0.069101594 -0.14281489 0.02862683 -0.06501743 -0.051107474 -0.065525234 0.09305768 0.03906666
-0.10402007 0.04202309 0.00060686975 -0.1013305 0.13569638 -0.03457874 -0.016363338 -0.053864334
-0.09460051 0.07543879 0.016857661 0.09220783 -0.13410033 0.108206406 -0.108860396 0.04918235
-0.0073044146 0.00021398865 0.14589365 0.09843402 0.025846655 -0.15469281 -0.015970286 -0.08705834
0.05469726 -0.04184453 0.14570084 0.024874523 0.15188345 -0.075941674 0.09717109 -0.0027969691
-0.12488807 -0.033070944 -0.07420621 0.007814959 -0.10910291 0.14932233 0.0037823464 -0.0025570916
0.021790251 -0.010395676 -0.0039531346 -0.008466999 -0.1093509 -0.13842122 0.06758674 -0.11106915
-0.043504156 -0.032205943 -0.035762925 0.13801013 0.046143994 0.107873715 0.082917295 -0.061711974
0.07897061 -0.00956989 -0.13826557 -0.0013219685 0.024795052 0.050210863 -0.13682546 0.1440489
0.17060606 -0.120332375 0.0637509 -0.15899415 0.13347338 0.06797281 -0.099901 0.00030542343
0.0071265707 0.15443024 -0.14589153 -0.02162792 -0.008059932 -0.076542854 0.062109016 -0.16455667
0.15230246 -0.14713736 0.062273823 -0.0054055084 -0.006649613 0.031164667 0.022451561 -0.07869906
0.048422642 -0.07955516 0.16462132 0.06802225 0.037005156 0.013701338 0.17785183 -0.122036904
-0.060291193 0.10831501 0.09124938 -0.10158411 -0.15710363 0.025983874 -0.07105752 -0.11669649
0.04909135 -0.07212575 -0.1484612 -0.12539266 -0.14882469 -0.05208197 0.025048094 -0.1174065
-0.10739957 0.14464262 -0.08812497 0.10685023 -0.003431961 0.020729719 -0.12339568 -0.1164836
0.13500601 -0.05421682 0.06421041 0.04459576 -0.14393274 -0.11303831 -0.14802727 0.10810892
0.13936608 -0.0984993 0.03838123 -0.05432021 -0.117393404 0.014421154 -0.13754651 -0.13342485
-0.004399028 0.14073676 0.11606235 -0.07461609 -0.034617305 -0.10049548 -0.09417716 -0.04060848
0.05815866 -0.12867492 0.019802442 -0.039481953 -0.12464955 0.13064131 -0.107722275 -0.00464947
0.027655447 -0.09439355 0.046008784 -0.10727579 -0.11148019 0.093229294 -0.0705641 0.0093844
-0.111446604 0.11237816 0.077156566 0.069824725 0.10987016 -0.12406173 -0.12690657 -0.1575744
-0.10414605 -0.006201053 0.075111315 -0.023497077 -0.061866093 -0.03243733 -0.0010503783 -0.13608979
-0.014354354 0.0463949 0.089103155 -0.06600637 -0.026256235 0.05665188 0.0006945914 -0.082987584
-0.08150768 -0.038863387 -0.09347614 0.06579224 0.09550328 0.10495 0.13059849 0.09667286
-0.14329065 0.13216159 -0.047125116 -0.15148513 0.21275306 -0.08449771 0.1517209 -0.046424348
0.13748915 -0.21589704 -0.11899086 -0.04285667 0.043342926 0.12487959 -0.25785884 -0.16825746
-0.24545294 0.076200046 -0.03312466 -0.06362047 -0.13189533 0.0021022896 -0.05711701 0.18011741
0.11963649 0.051939737 -0.010134595 -0.12164886 0.09336289 -0.02371902 -0.03417453 0.15632118
0.108392455 0.01598668 0.16156769 -0.08129414 0.12592788 -0.107284255 0.13006079 0.15230371
0.014222125 0.111043125 0.10243348 0.08660474 0.0028137462 0.03676183 -0.14543489 -0.14058621
00000000: 4572 0b3e e1b1 bbbd f6b7 033d d46a db3c
00000010: dd4d 1fbe 6269 113b bbd7 183c 5aa1 d23d
00000020: 2385 8dbd 113e 12be d082 ea3c dc27 85bd
00000030: 1256 51bd 1832 86bd 0695 be3d 5d04 203d
00000040: 7908 d5bd 6720 2c3d 5716 1f3a 5d86 cfbd
00000050: fef3 0a3e 70a2 0dbd 680c 86bc d9a0 5cbd
00000060: eabd c1bd a77f 9a3d 1419 8a3c 75d7 bc3d
00000070: 9951 09be 529b dd3d 33f2 debd 6f73 493d
00000080: df59 efbb 2462 6039 2565 153e c797 c93d
00000090: 5dbc d33c cb67 1ebe 1ed4 82bc a54b b2bd
000000a0: 3c0a 603d 2b65 2bbd 9a32 153e a8c5 cb3c
000000b0: 5687 1b3e 4f87 9bbd a301 c73d 5b4d 37bb
000000c0: 51c5 ffbd 6675 07bd 6df9 97bd 500a 003c
000000d0: 5971 dfbd f4e7 183e 3ee1 773b e194 27bb
000000e0: 7881 b23c a052 2abc 4c89 81bb 2bb9 0abc
000000f0: 5df3 dfbd 4bbe 0dbe eb6a 8a3d 3978 e3bd
00000100: 6a31 32bd 61ea 03bd 257c 12bd 8752 0d3e
00000110: 7c01 3d3d e5ec dc3d 8bd0 a93d b2c5 7cbd
00000120: 58bb a13d 07cb 1cbc 7d95 0dbe e745 adba
00000130: fe1e cb3c e8a9 4d3d f91b 0cbe 8e81 133e
00000140: 5bb3 2e3e d270 f6bd d58f 823d 5dcf 22be
00000150: 3fad 083e 5435 8b3d e598 ccbd 3d21 a039
00000160: 0286 e93b f622 1e3e 9764 15be 092d b1bc
00000170: ce0d 04bc 80c2 9cbd 0666 7e3d 8b81 28be
00000180: 2df5 1b3e 2dab 16be d612 7f3d b120 b1bb
00000190: ffe4 d9bb 0b4d ff3c 56ec b73c f92c a1bd
000001a0: d256 463d d1ed a2bd 7e92 283e 404f 8b3d
000001b0: b892 173d 947b 603c ca1e 363e 7cee f9bd
000001c0: e6f3 76bd 43d4 dd3d f4e0 ba3d 540b d0bd
000001d0: c6df 20be 22dc d43c 9b86 91bd 92fe eebd
000001e0: 0314 493d aab6 93bd 3606 18be ef66 00be
000001f0: 8065 18be e753 55bd a931 cd3c d272 f0bd
00000200: 4ef4 dbbd 321d 143e dd7a b4bd 4bd4 da3d
00000210: c0ea 60bb 5fd1 a93c e0b6 fcbd f48e eebd
00000220: 043f 0a3e 7512 5ebd bf80 833d 0baa 363d
00000230: 1b63 13be a180 e7bd 7694 17be 3668 dd3d
00000240: fbb5 0e3e 00ba c9bd a335 1d3d de7e 5ebd
00000250: f46b f0bd b446 6c3c fed8 0cbe 86a0 08be
00000260: b925 90bb 4c1d 103e 19b2 ed3d 52d0 98bd
00000270: e0ca 0dbd 93d0 cdbd f4df c0bd 1455 26bd
00000280: c637 6e3d 5cc3 03be bb38 a23c d4b7 21bd
00000290: 4348 ffbd d6c6 053e 7f9d dcbd 955a 98bb
000002a0: ad8d e23c 6851 c1bd b573 3c3d 69b3 dbbd
000002b0: ba4f e4bd 00ef be3d e983 90bd 07c1 193c
000002c0: 1e3e e4bd 8526 e63d 4304 9e3d 4400 8f3d
000002d0: 9b03 e13d 1414 febd ccf3 01be 2f5b 21be
000002e0: 864a d5bd 3432 cbbb f6d3 993d f17c c0bc
000002f0: 4d67 7dbd 01dd 04bd d9ac 89ba 1f5b 0bbe
00000300: 862e 6bbc 9408 3e3d b77b b63d 592e 87bd
00000310: 5117 d7bc cd0b 683d 3d15 363a 65f5 a9bd
00000320: 80ed a6bd 372f 1fbd 6b70 bfbd 15be 863d
00000330: 3997 c33d 07f0 d63d 9cbb 053e 6cfc c53d
00000340: c9ba 12be 5e55 073e 4406 41bd eb1e 1bbe
00000350: f0db 593e 230d adbd b95c 1b3e 7527 3ebd
00000360: f5c9 0c3e 1d14 5dbe 7bb1 f3bd 7a8a 2fbd
00000370: 5a88 313d dfc0 ff3d 1306 84be af4b 2cbe
00000380: 0458 7bbe c50e 9c3d b9ad 07bd 734b 82bd
00000390: 920f 07be 91c6 093b 87f3 69bd b370 383e
000003a0: fa03 f53d c3be 543d 930b 26bc 0a23 f9bd
000003b0: 0b35 bf3d 644e c2bc 98fa 0bbd a912 203e
000003c0: ddfc dd3d 7ff6 823c 0072 253e 8b7d a6bd
000003d0: 3df3 003e d9b7 dbbd a82e 053e 81f5 1b3e
000003e0: ea03 693c 946a e33d a5c8 d13d d35d b13d
000003f0: d466 383b 9393 163d e2ec 14be d5f5 0fbe

fc1.bias f4 [256]
-0.07920664 0.118471034 -0.008940797 -0.14254901 -0.12615412 0.16621585 0.022601314 0.08066717
0.004306268 0.09205413 0.13434087 0.11532082 -0.10003026 0.115618005 -0.011853786 -0.09178163
-0.032664407 -0.118307844 -0.07234706 0.022758758 0.15504998 0.020305574 0.081973225 -0.05040103
0.09002101 -0.07536915 -0.098804705 -0.072646536 -0.095480025 -0.005731774 -0.045781095 0.15529554
-0.15751849 0.026174068 0.014741317 -0.06308389 0.007505017 -0.014934174 0.05962442 0.011342262
-0.08765773 0.16784765 -0.0562866 0.076463126 -0.13644943 0.031796362 0.04416688 0.08401751
0.13843592 0.120718315 -0.12605754 0.16035992 -0.11077688 0.075854346 0.052450616 0.047196433
0.04480434 -0.07426086 0.038202073 0.1426186 -0.11098396 -0.005700296 0.012448775 -0.14585994
-0.07601574 0.066284075 0.07548006 0.19047084 0.15861577 -0.025163934 0.1387591 0.1632874
0.009652137 -0.11303842 -0.08823046 -0.07223809 -0.06279039 0.14047262 0.041936465 0.14483649
0.099271886 0.13695154 -0.017329799 -0.14449045 0.16718045 -0.1211515 0.001830494 0.051625524
0.070692986 0.029646156 0.038142458 0.05377287 0.01274172 0.10926138 0.13280357 0.0032551894
0.16784272 -0.106046855 -0.058042098 0.10207648 0.007314188 0.16844535 -0.12970445 -0.0033997819
-0.11045989 0.08078197 0.04301633 0.022580165 0.09714533 0.13905208 0.07510122 0.021625746
-0.13580142 0.09605127 0.13498743 -0.05491984 0.014812849 -0.083421625 0.03932415 -0.04197337
-0.12925787 0.05487834 0.12433691 0.09921415 0.12812525 0.10604233 -0.13159505 0.089416936
0.14588413 -0.015642371 0.17222615 -0.021028427 -0.14335507 -0.00038663662 -0.1270337 0.06465492
0.1847784 0.14308624 0.10481376 0.12906322 0.1492758 -0.06789057 0.08766612 -0.034561288
0.042133152 -0.020162132 0.16242932 -0.02748115 0.13269073 -0.11481502 0.13256976 -0.074812606
0.06781609 -0.054833755 0.059968334 0.102927856 -0.0007110462 -0.10804481 0.07405689 -0.14339022
0.017663738 -0.067499384 0.1571025 0.022793978 0.032740742 0.07270038 0.06311994 0.09281229
0.15078317 0.07151345 0.039878555 -0.04357705 -0.10238997 0.005014849 -0.032980677 0.078963615
0.074570075 0.10357473 0.1690649 -0.009634577 0.1266622 -0.1385915 -0.0017552376 0.065066956
-0.007819936 0.0004921723 -0.091773815 -0.07710488 -0.11245325 0.01706744 0.021326987 0.15233243
-0.043325022 0.027304815 -0.11245165 -0.0702048 -0.015260078 0.14003065 -0.042731572 0.04031038
-0.08944893 0.004396861 0.079363525 0.14302507 0.039692663 -0.12948231 -0.12006373 0.1018516
0.14347641 -0.11901607 0.060393617 -0.080281876 -0.035562832 0.20153965 0.04281295 0.03579566
-0.10787488 -0.15938759 0.16243862 0.16388687 -0.035182066 0.027192226 0.13707876 -0.030670438
-0.055611517 -0.04224154 0.098555565 -0.0068592806 -0.14677706 0.108899474 0.13226232 -0.011431023
-0.110990904 0.13558695 0.04160449 -0.10498794 0.059648596 -0.07899218 0.091564655 -0.07533524
-0.004589051 0.04499487 -0.13314447 -0.056356635 0.07989614 0.15659101 -0.06268493 0.052543655
0.1530169 0.108070545 -0.13213468 0.10748156 0.029414732 0.16019422 0.17521288 0.008301034
00000000: 1737 a2bd f1a0 f23d 6c7c 12bc 5ef8 11be
00000010: 8c2e 01be 7d34 2a3e 6426 b93c d434 a53d
00000020: 981b 8d3b e086 bc3d a790 093e 522d ec3d
00000030: aadc ccbd 22c9 ec3d 6236 42bc 02f8 bbbd
00000040: 1dcb 05bd 624b f2bd b22a 94bd 9370 ba3c
00000050: 6cc5 1e3e e057 a63c 94e1 a73d 4f71 4ebd
00000060: ef5c b83d 245b 9abd 1f5a cabd b5c7 94bd
00000070: 088b c3bd 9bd1 bbbb f584 3bbd cb05 1f3e
00000080: 874c 21be 006b d63c 9185 713c 2032 81bd
00000090: a5ec f53b 77ae 74bc bc38 743d e5d4 393c
000000a0: e585 b3bd 41e0 2b3e c78c 66bd b398 9c3d
000000b0: 66b9 0bbe e73c 023d 55e8 343d 5f11 ac3d
000000c0: 25c2 0d3e 2a3b f73d 3a15 01be 6435 243e
000000d0: fdde e2bd 8659 9b3d 75d6 563d 0c51 413d
000000e0: c184 373d 1416 98bd c779 1c3d 9c0a 123e
000000f0: 8f4b e3bd 8cc9 babb f2f5 4b3c 4f5c 15be
00000100: 24ae 9bbd f2bf 873d 4a95 9a3d ca0a 433e
00000110: 2c6c 223e 9824 cebc de16 0e3e d034 273e
00000120: ff23 1e3c b080 e7bd 2cb2 b4bd 90f1 93bd
00000130: 3f98 80bd 0ed8 0f3e 92c5 2b3d 0450 143e
00000140: 0f4f cb3d 063d 0c3e 39f7 8dbc 4ef5 13be
00000150: 5a31 2b3e 471e f8bd 30ed ef3a 4975 533d
00000160: 7cc7 903d 7fdc f23c 443b 1c3d f140 5c3d
00000170: a6c2 503c 6ec4 df3d a9fd 073e 0455 553b
00000180: f6de 2b3e 182f d9bd 8dbd 6dbd 790d d13d
00000190: dbab ef3b f07c 2c3e 3ed1 04be e0ce 5ebb
000001a0: cb38 e2bd 0471 a53d e431 303d 0afa b83c
000001b0: 21f4 c63d ab63 0e3e abce 993d 7a28 b13c
000001c0: 870f 0bbe 87b6 c43d 253a 0a3e a0f3 60bd
000001d0: 98b1 723c f5d8 aabd 5c12 213d 45ec 2bbd
000001e0: 2d5c 04be 1cc8 603d 5aa4 fe3d ca30 cb3d
000001f0: 4433 033e b92c d93d dac0 06be 3a20 b73d
00000200: a662 153e 6e24 80bc 0d5c 303e cf43 acbc
00000210: accb 12be 7db5 cab9 1f15 02be cc69 843d
00000220: 8d36 3d3e 3385 123e 99a8 d63d 2629 043e
00000230: c1db 183e 360a 8bbd 4b8a b33d 2390 0dbd
00000240: d093 2c3d 0e2b a5bc df53 263e 2620 e1bc
00000250: 14e0 073e 2324 ebbd 5ec0 073e 5a37 99bd
00000260: 2ae3 8a3d 5c99 60bd 5ba1 753d d7cb d23d
00000270: 8165 3aba 9946 ddbd 24ab 973d e3d4 12be
00000280: 8bb3 903c 1e3d 8abd 7adf 203e 70ba ba3c
00000290: 281b 063d f0e3 943d 0745 813d 5f14 be3d
000002a0: e766 1a3e a575 923d b257 233d d97d 32bd
000002b0: d5b1 d1bd 9a53 a43b bf16 07bd adb7 a13d
000002c0: 32b8 983d fd1e d43d 591f 2d3e 58da 1dbc
000002d0: bcb3 013e eeea 0dbe 0010 e6ba d341 853d
000002e0: 301f 00bc 2005 013a e9f3 bbbd 2ae9 9dbd
000002f0: e44d e6bd 04d1 8b3c efb5 ae3c 08fd 1b3e
00000300: 9475 31bd 59ae df3c 0d4d e6bd 89c7 8fbd
00000310: 6805 7abc 3264 0f3e 4d07 2fbd 7f1c 253d
00000320: 0031 b7bd 8b13 903b 5889 a23d 2a75 123e
00000330: c694 223d 0397 04be f9e3 f5bd 9297 d03d
00000340: 7beb 123e b3be f3bd 4c5f 773d d36a a4bd
00000350: 55aa 11bd 6960 4e3e a25c 2f3d 789e 123d
00000360: 81ed dcbd 8036 23be 4f56 263e f6d1 273e
00000370: 121b 10bd 3bc2 de3c 605e 0c3e 9240 fbbc
00000380: e7c8 63bd 7705 2dbd 80d7 c93d d1c3 e0bb
00000390: ba4c 16be b006 df3d c66f 073e 2f49 3bbc
000003a0: 334f e3bd 4ed7 0a3e 7869 2a3d eb03 d7bd
000003b0: 1652 743d a7c6 a1bd 4086 bb3d 5d49 9abd
000003c0: c05f 96bb 8a4c 383d 0657 08be 37d6 66bd
000003d0: 96a0 a33d 6559 203e f560 80bd 0438 573d
000003e0: 76b0 1c3e 1754 dd3d 504e 07be 4b1f dc3d
000003f0: 2af7 f03c f409 243e 016b 333e 0f01 083c

fc2.weight f4 [128, 256]
-0.0013952553 -0.022818146 0.09618167 -0.030375302 -0.04977195 -0.09472943 0.06735346 0.07239357
-0.028036416 0.04638063 0.027285067 0.02829599 -0.03258246 0.07053728 -0.04904266 -0.029564908
-0.023350716 -0.08806313 -0.0306422 0.023366176 0.015717957 0.048269358 0.0004080442 0.010336444
-0.09361647 -0.0019401833 0.020663477 -0.020128556 -0.025692254 0.08311459 -0.009472802 -0.028519496
-0.049304515 0.01620021 0.02324625 -0.008536128 0.05405341 0.1324036 0.011122789 -0.09198106
0.033717558 0.02797416 -0.09192846 -0.059080806 -0.039789267 0.09623966 0.07569219 0.051556353
-0.029027505 0.061091978 -0.006943968 0.07027228 0.016213434 0.15226552 0.015157929 -0.020526214
0.055876717 0.06109808 -0.0025908053 0.06624861 -0.010665171 0.008597719 -0.007938527 -0.051234942
0.07351523 -0.015758751 -0.038242336 0.05568803 0.18413599 0.09575938 0.07454365 0.023639718
-0.015483545 0.031697422 -0.048967946 0.04729767 -0.09203631 -0.016931582 -0.007212966 -0.035844803
-0.030414514 0.00076360174 -0.04922999 0.021069502 0.06165094 -0.005014471 -0.05678732 0.018175429
0.045206707 -0.009708796 -0.06818795 0.09905583 -0.01959464 0.099521495 0.026953872 0.004103514
0.034554593 0.024142861 -0.00874792 -0.0084257 -0.057055876 0.047821872 0.05221981 0.042617552
-0.0054599447 -0.022775277 -0.03127819 0.052651644 -0.060266916 -0.041144397 0.018991413 0.024603464
0.030285938 0.06382887 0.0066390987 0.03991521 -0.054158762 0.031740986 -0.037602007 0.07384349
0.045891747 -0.020677531 -0.06140579 -0.17299701 -0.057994965 0.041012168 0.039425254 0.07209863
0.055599045 -0.0063222228 0.05275364 0.06374208 -0.06433203 0.0066863275 -0.0051736385 0.11385527
-0.008042748 -0.021044066 0.06391828 0.05320245 -0.037597526 0.057865802 0.015304497 0.13543995
-0.013227874 0.084951326 -0.05592632 0.09383644 -0.010584821 -0.03552418 0.061375808 -0.05345427
-0.080971174 -0.046056505 0.036597922 0.06285659 0.049822696 -0.026926745 0.05254716 0.044864453
0.0009239264 -0.06265123 0.06622235 0.0616737 0.08336839 0.018319692 0.017195923 -0.06732939
-0.049268845 0.01549387 0.04275178 0.040216587 0.047182396 -0.06630191 -0.03550653 0.0008190224
-0.20060545 -0.1303463 0.05437482 -0.0713422 0.14184374 0.030619994 0.09164205 -0.023090782
0.049970347 -0.025576996 0.010229032 0.120994024 -0.011914611 -0.024970705 -0.02466644 0.050196674
-0.0820907 0.021614386 -0.002263017 -0.015840074 0.07152717 -0.034872968 0.05064056 0.055762563
-0.031054549 0.041956823 0.05866182 0.090404525 -0.060865603 0.039111152 0.049719997 0.03844032
0.058327973 0.0049285213 0.15234037 -0.054040182 0.030950664 -0.057726324 0.064596735 -0.04395564
0.033418328 -0.047986865 -0.016892752 -0.06993968 0.1491414 0.10206691 -0.019091778 -0.046266392
0.0471941 0.0876337 -0.0028056474 0.020883575 -0.047754057 -0.014381796 -0.078228794 0.04610941
0.004504354 -0.04196787 -0.0076531963 -0.053112015 0.053252634 -0.009616762 0.045529615 0.027397096
-0.00022311311 -0.17084125 0.03487453 0.0053100884 0.002175277 0.06538782 -0.05085148 -0.0004052003
0.026979826 -0.013618108 0.10285419 0.05186994 -0.030961206 0.042838503 0.09117499 0.09354083
00000000: 00e1 b6ba 1fed babc e5fa c43d a0d5 f8bc
00000010: acdd 4bbd 8101 c2bd 9cf0 893d 1443 943d
00000020: a0ac e5bc 9ef9 3d3d ef84 df3c fecc e73c
00000030: 3075 05bd d975 903d f5e0 48bd 1b32 f2bc
00000040: 004a bfbc 715a b4bd 5a05 fbbc 6c6a bf3c
00000050: f2c2 803c 17b6 453d c4ee d539 305a 293c
00000060: feb9 bfbd c04d feba 7446 a93c a4e4 a4bc
00000070: 9078 d2bc fb37 aa3d d033 1bbc b8a1 e9bc
00000080: 88f3 49bd 4eb6 843c eb6e be3c 1edb 0bbc
00000090: 1c67 5d3d cf94 073e 5c3c 363c 9160 bcbd
000000a0: 6c1b 0a3d 112a e53c fd44 bcbd b7fe 71bd
000000b0: 12fa 22bd 4d19 c53d 8204 9b3d c12c 533d
000000c0: 17cb edbc 953b 7a3d 3a8a e3bb eaea 8f3d
000000d0: 09d2 843c 7eeb 1b3e f658 783c 9726 a8bc
000000e0: fcde 643d fb41 7a3d 80ca 29bb 5aad 873d
000000f0: f8bc 2ebc 72dd 0c3c 9810 02bc bbdb 51bd
00000100: 278f 963d 7f18 81bc ffa3 1cbd 2219 643d
00000110: 258e 3c3e 7e1d c43d 57aa 983d 15a8 c13c
00000120: b2ae 7dbc 28d5 013d 9d92 48bd 34bb 413d
00000130: 887d bcbd 1ab4 8abc bf5a ecbb 00d2 12bd
00000140: dc27 f9bc 722c 483a 63a5 49bd f399 ac3c
00000150: b285 7c3d 6e50 a4bb d299 68bd a3e4 943c
00000160: ab2a 393d a411 1fbc 20a6 8bbd c8dd ca3d
00000170: f084 a0bc edd1 cb3d 5ece dc3c c576 863b
00000180: 1e89 0d3d 40c7 c53c 7053 0fbc f20b 0abc
00000190: 6cb3 69bd dee0 433d 71e4 553d be8f 2e3d
000001a0: 56e9 b2bb 3893 babc 8f1d 00bd 40a9 573d
000001b0: 71da 76bd 0787 28bd e193 9b3c 348d c93c
000001c0: 371a f83c b6b8 823d cc8c d93b 227e 233d
000001d0: 94d5 5dbd d602 023d 9004 1abd 413b 973d
000001e0: fcf8 3b3d ed63 a9bc a384 7bbd 2126 31be
000001f0: 218c 6dbd 60fc 273d 607c 213d 72a8 933d
00000200: d3bb 633d a62a cfbb 3314 583d 358b 823d
00000210: 83c0 83bd fb18 db3b a087 a9bb f42c e93d
00000220: bbc5 03bc 9b64 acbc 96e7 823d d0ea 593d
00000230: ddff 19bd b104 6d3d b7bf 7a3c c5b0 0a3e
00000240: bab9 58bc f6fa ad3d ff12 65bd 522d c03d
00000250: f56b 2dbc cd81 11bd 3365 7b3d ddf2 5abd
00000260: 37d4 a5bd bfa5 3cbd b4e7 153d f5ba 803d
00000270: e212 4c3d 7a95 dcbc b13b 573d cac3 373d
00000280: a733 723a 4a4f 80bd 959f 873d 909d 7c3d
00000290: 0cbd aa3d 2e13 963c 77de 8c3c fee3 89bd
000002a0: 21ce 49bd 00da 7d3c 7e1c 2f3d 26ba 243d
000002b0: 5442 413d 4cc9 87bd 4c6f 11bd aab3 563a
000002c0: 846b 4dbe 8079 05be 22b8 5e3d dc1b 92bd
000002d0: 7c3f 113e c8d6 fa3c d4ae bb3d e128 bdbc
000002e0: b5ad 4c3d d986 d1bc ab97 273c b7cb f73d
000002f0: 8035 43bc 5d8f ccbc 4611 cabc 079b 4d3d
00000300: 2b1f a8bd a710 b13c 204f 14bb 0bc3 81bc
00000310: d67c 923d f5d6 0ebd 7a6c 4f3d 4967 643d
00000320: 1c66 febc ebda 2b3d 6047 703d 0226 b93d
00000330: 364e 79bd 0433 203d 32a7 4b3d 9973 1d3d
00000340: 50e9 6e3d 6f7f a13b 1dff 1b3e 3d59 5dbd
00000350: 3f8c fd3c 7072 6cbd 4b4b 843d d40a 34bd
00000360: a8e1 083d e08d 44bd ab62 8abc 893c 8fbd
00000370: 86b8 183e 7508 d13d 5c66 9cbc d481 3dbd
00000380: 9a4e 413d 4c79 b33d f4de 37bb 0814 ab3c
00000390: c299 43bd a0a1 6bbc 6b36 a0bd 38dd 3c3d
000003a0: 4399 933b 80e6 2bbd aac7 fabb fc8b 59bd
000003b0: 6f1f 5a3d a08f 1dbc 437d 3a3d e06f e03c
000003c0: 78f3 69b9 02f1 2ebe 98d8 0e3d 4000 ae3b
000003d0: 188f 0e3b 0dea 853d a449 50bd 1071 d4b9
000003e0: cc04 dd3c 7c1e 5fbc 38a5 d23d 9375 543d
000003f0: 5ba2 fdbc 6d77 2f3d f4b9 ba3d 5692 bf3d

fc2.bias f4 [128]
0.0013800204 -0.058130316 -0.06128285 0.0129053155 0.042469855 -0.0009211776 0.087960295 -0.057411626
0.015922913 0.049782176 0.066621654 -0.013277854 -0.014674239 -0.032186363 0.045895454 0.040799364
0.04358624 0.044020753 -0.025194483 -0.026385274 0.060978558 0.06948925 0.054887358 -0.03221165
0.071077876 0.030932462 -0.049783446 -0.020259254 -0.03962705 -0.019022701 0.02389968 0.0058278823
-0.006949158 0.037045408 0.0157429 -0.02205827 0.067299195 0.01730215 0.013266726 -0.011912249
0.06428805 0.060961224 0.0012130903 -0.011610855 -0.038387146 0.071813755 0.01594414 -0.0155283855
0.021653086 0.04239705 0.008070393 0.0062312833 0.055215504 0.012052488 -0.029027995 0.066496685
0.029608691 0.015894938 0.012445225 0.036974568 0.013055921 0.03400778 -0.045872662 0.05732918
0.012437254 0.05497896 -0.02476403 0.06628038 0.06799762 0.07428996 0.041581534 -0.028224444
0.04333466 -0.06191819 0.00393834 -0.006973567 -0.042048108 -0.034764998 0.052840978 0.054137167
0.060446914 0.04850105 -0.034243837 -0.051971566 0.006846541 -0.045420367 0.060101416 -0.05875492
0.055353574 -0.0033922899 0.07243274 -0.053365752 0.028887684 0.03525024 -0.025253365 0.00022229052
0.04556399 0.07386956 0.057497695 -0.018125327 0.07157285 0.0052259658 -0.009878896 -0.021241788
0.00912029 0.034979325 0.0022232085 -0.0010085541 -0.039634254 0.0027780607 0.05286658 0.06813334
0.019290937 0.049673706 -0.014284073 0.03674722 0.04950899 0.02553948 0.045272093 0.028403403
-0.0005932387 0.029646762 0.029902685 -0.036822703 -0.030326864 -0.03856515 -0.0016799876 -0.008651298
00000000: cde1 b43a 0e1a 6ebd ba03 7bbd d170 533c
00000010: dff4 2d3d 2f7b 71ba 8724 b43d 7428 6bbd
00000020: c570 823c 65e8 4b3d ef70 883d 5b8b 59bc
00000030: 386c 70bc d9d5 03bd dffc 3b3d 3c1d 273d
00000040: 7c87 323d 1b4f 343d a964 cebc ee25 d8bc
00000050: a7c4 793d 6150 8e3d 91d1 603d 5df0 03bd
00000060: 4791 913d 1366 fd3c bae9 4bbd bcf6 a5bc
00000070: f94f 22bd 7fd5 9bbc 43c9 c33c d2f7 be3b
00000080: c3b5 e3bb edbc 173d 41f7 803c 8cb3 b4bc
00000090: 29d4 893d 3dbd 8d3c af5c 593c 982b 43bc
000000a0: 74a9 833d 7ab2 793d 8e00 9f3a 753b 3ebc
000000b0: d73b 1dbd 1713 933d 499d 823c c56a 7ebc
000000c0: d061 b13c 87a8 2d3d af39 043c cb2f cc3b
000000d0: a729 623d cc77 453c 1ecc edbc 6a2f 883d
000000e0: ed8d f23c 1a36 823c 0fe7 4b3c a572 173d
000000f0: 80e8 553c be4b 0b3d f9e4 3bbd 01d2 6a3d
00000100: a0c5 4b3c 9e31 613d efdd cabc 02be 873d
00000110: 5642 8b3d 5625 983d 6651 2a3d f336 e7bc
00000120: af7f 313d ee9d 7dbd 310d 813b 8582 e4bb
00000130: a33a 2cbd be65 0ebd c86f 583d efbe 5d3d
00000140: 2f97 773d 09a9 463d 4443 0cbd 23e0 54bd
00000150: f358 e03b b50a 3abd e72c 763d 00a9 70bd
00000160: 6eba 623d 2e51 5ebb 9e57 943d 0c96 5abd
00000170: dda5 ec3c 8e62 103d 25e0 cebc a816 6939
00000180: 4ea1 3a3d ed48 973d b482 6b3d 917b 94bc
00000190: c994 923d 943e ab3b 18db 21bc 4203 aebc
000001a0: 456d 153c 7b46 0f3d 40b3 113b 7631 84ba
000001b0: 8757 22bd 2010 363b a18a 583d 7e89 8b3d
000001c0: 0708 9e3c a876 4b3d bf07 6abc 4184 163d
000001d0: f0c9 4a3d 2c38 d13c 3b6f 393d 41ae e83c
000001e0: 9383 1bba c4dd f23c 7af6 f43c 67d3 16bd
000001f0: 0b70 f8bc 7ef6 1dbd 0833 dcba 2cbe 0dbc

fc3.weight f4 [64, 128]
0.024036516 0.0083473725 0.02536118 -0.029641373 -0.018741619 0.07833576 -0.06735247 0.02385992
-0.07795254 0.026514571 -0.04091165 0.0043864017 0.0327869 0.02353502 0.010097974 0.027971167
0.020212395 -0.063715495 0.07683383 0.06696569 0.07174718 -0.03292461 -0.06868737 -0.05659779
-0.06494392 -0.07477641 0.03721216 -0.061895534 -0.020461442 0.087790206 0.019398307 0.067671634
0.034425102 -0.0324699 -0.07185487 -0.011369829 -0.027195422 -0.014295494 0.0093364855 -0.019239066
0.07486573 -0.07416446 -0.035061225 -0.03473404 -0.03436185 0.080674455 0.066292696 -0.06965559
0.052018937 0.018165566 -0.03648271 0.008509522 -0.0701709 -0.046614412 0.082078844 0.052454524
0.05823368 -0.00017248598 -0.015230322 0.07177321 -0.04043672 0.0064513967 0.044767592 0.039471913
0.02247823 0.0033169568 0.037097245 0.08272186 -0.07982112 -0.028723076 0.085322276 -0.011921626
-0.080395386 -0.077342555 0.045279022 -0.037099224 -0.04816098 -0.055892464 -0.027757788 0.056128748
-0.015564083 -0.015914366 0.082098 0.049697414 -0.026350062 0.07092583 0.018617243 0.05881281
-0.08395634 -0.07465134 -0.017782513 0.0342005 0.02738797 -0.07169045 -0.020735765 -0.056109656
-0.052183826 0.044701062 0.050293665 0.07547504 0.057571024 -0.00408718 -0.07643179 -0.07545578
-0.02141179 0.015424356 0.054628953 0.05766238 -0.075726 -0.08084895 -0.081067525 0.08552435
-0.024647761 0.02727608 0.07973789 0.011072852 -0.04312124 -0.06877224 0.01764972 -0.04573782
0.018868564 0.00434887 0.046435405 0.07868049 -0.015210018 -0.07700767 0.041077066 -0.06529836
0.010591923 -0.012312201 -0.03243418 0.019517213 0.11404833 0.19046748 -0.122868285 -0.07017911
0.06752503 0.060788155 0.091799475 -0.003526061 -0.079214744 0.008158894 -0.032202087 -0.027373873
0.049092453 -0.046513963 0.045330185 -0.016388983 0.004900907 -0.051625125 -0.0016329858 0.02750572
0.039065175 0.06161979 -0.005739642 -0.0035625512 0.09398835 0.008445324 0.095395036 -0.015886925
-0.06854972 0.091439664 0.066178516 0.03382725 0.08182048 0.014989863 0.03358653 -0.016189046
0.038286522 0.033916622 -0.1635142 -0.009698832 -0.026467917 -0.009941538 0.037407093 -0.08456493
-0.043867625 0.1045756 0.06591444 0.07861939 -0.051729083 -0.0012036596 -0.029209146 0.0048373966
0.009332164 -0.029849937 0.07733923 0.016552057 -0.04300409 0.011637656 -0.046217293 -0.087970026
0.000872798 -0.034461886 -0.06464197 -0.028801234 0.030518671 0.00057813333 -0.03032908 -0.036000796
0.09946386 -0.036812123 -0.015657136 0.045950186 -0.027449904 -0.056438178 -0.009235229 0.032842185
0.026098765 0.011911372 -0.022658072 0.20129016 0.027474765 -0.016199445 0.03521128 0.04100407
0.08194961 0.030377556 -0.07553166 0.13094845 -0.06039732 -0.036203887 -0.0040289247 0.046503533
0.11018635 -0.014708707 -0.016509637 0.0910227 0.07533797 -0.020238755 0.10843144 0.07978133
0.016712155 0.016917413 -0.012597545 0.081554174 -0.07611775 -0.0058954484 0.11912847 0.051496465
0.08856476 0.012342723 0.050117947 0.042007573 0.09927914 0.057283815 0.0018714602 0.07962909
-0.049072996 0.028072922 0.011275547 -0.041545536 0.111069135 -0.07739082 0.10572352 -0.06334888
00000000: 3ae8 c43c 6bc3 083c 40c2 cf3c 77d2 f2bc
00000010: 0688 99bc 806e a03d 17f0 89bd e175 c33c
00000020: 95a5 9fbd 1635 d93c f992 27bd cebb 8f3b
00000030: 8e4b 063d 84cc c03c f971 253c ca23 e53c
00000040: 7794 a53c 457d 82bd 0e5b 9d3d 4f25 893d
00000050: 2ff0 923d f5db 06bd f7ab 8cbd 16d3 67bd
00000060: 5101 85bd 6024 99bd c76b 183d 2c86 7dbd
00000070: c19e a7bc 5acb b33d 33e9 9e3c 6d97 8a3d
00000080: 5601 0d3d 28ff 04bd a528 93bd 8548 3abc
00000090: efc8 debc a637 6abc 0ff8 183c 3f9b 9dbc
000000a0: 3453 993d 89e3 97bd 5c9c 0fbd 4845 0ebd
000000b0: 03bf 0cbd a638 a53d 77c4 873d 97a7 8ebd
000000c0: cf11 553d f4cf 943c e56e 15bd 866b 0b3c
000000d0: c3b5 8fbd c1ee 3ebd f418 a83d 8eda 563d
000000e0: 7086 6e3d 5add 34b9 9a88 79bc d5fd 923d
000000f0: f9a0 25bd 3d66 d33b 395e 373d 4dad 213d
00000100: 4424 b83c 4d61 593b 48f3 173d 146a a93d
00000110: 4179 a3bd a84c ebbc 72bd ae3d ec52 43bc
00000120: 56a6 a4bd c665 9ebd 7f76 393d 5bf5 17bd
00000130: 7344 45bd 7fef 64bd 4d64 e3bc 42e7 653d
00000140: 7f00 7fbc d85e 82bc ff22 a83d 848f 4b3d
00000150: 16dc d7bc 9041 913d 3083 983c b3e5 703d
00000160: 4df1 abbd cde2 98bd a2ac 91bc d315 0c3d
00000170: bc5c e03c 71d2 92bd 0dde a9bc 3dd3 65bd
00000180: b5be 55bd 7618 373d bb00 4e3d a892 9a3d
00000190: 98cf 6b3d c0ed 85bb 4588 9cbd 8f88 9abd
000001a0: c767 afbc 70b6 7c3c 9cc2 5f3d 632f 6c3d
000001b0: 3c16 9bbd 2294 a5bd bb06 a6bd 6427 af3d
000001c0: 1aea c9bc 1672 df3c 9e4d a33d e86a 353c
000001d0: e69f 30bd 76d8 8cbd 2596 903c 9557 3bbd
000001e0: 3f92 9a3c f780 8e3b 0d33 3e3d 3d23 a13d
000001f0: 7033 79bc 33b6 9dbd 6d40 283d 26bb 85bd
00000200: bf89 2d3c 1db9 49bc b4d9 04bd 90e2 9f3c
00000210: 2c92 e93d e809 433e 5ea2 fbbd 11ba 8fbd
00000220: 904a 8a3d 00fd 783d 5d01 bc3d 7d15 67bb
00000230: 573b a2bd e2ac 053c 56e6 03bd 2c3f e0bc
00000240: 2b15 493d 6d85 3ebd 25ac 393d 3042 86bc
00000250: ca97 a03b de74 53bd e909 d6ba ad53 e13c
00000260: ce02 203d 0865 7c3d 9b13 bcbb b179 69bb
00000270: f77c c03d 425e 0a3c 795e c33d 4c25 82bc
00000280: cc63 8cbd b844 bb3d 9a88 873d 718e 0a3d
00000290: 7f91 a73d 0b98 753c 0792 093d e49e 84bc
000002a0: 54d2 1c3d 28ec 0a3d 4470 27be dae7 1ebc
000002b0: 3fd3 d8bc d5e1 22bc 2e38 193d 6130 adbd
000002c0: 8aae 33bd bb2b d63d 26fe 863d 3403 a13d
000002d0: e0e1 53bd 1dc4 9dba 0548 efbc 0683 9e3b
000002e0: efe5 183c db87 f4bc 0864 9e3d 2e98 873c
000002f0: 0f25 30bd deab 3e3c 584e 3dbd a129 b4bd
00000300: 7bcc 643a e827 0dbd 0263 84bd 91f0 ebbc
00000310: 4b02 fa3c df8d 173a b174 f8bc 9275 13bd
00000320: b5b3 cb3d 4fc8 16bd 6543 80bc 4336 3c3d
00000330: 9fde e0bc b82b 67bd 5c4f 17bc 8785 063d
00000340: 14cd d53c ea27 433c 6c9d b9bc 021f 4e3e
00000350: c212 e13c b3b4 84bc b439 103d e2f3 273d
00000360: 32d5 a73d 5ada f83c 58b0 9abd 5a17 063e
00000370: 2e63 77bd 874a 14bd 1205 84bb 7d7a 3e3d
00000380: 62a9 e13d cafc 70bc 383f 87bc 1c6a ba3d
00000390: cb4a 9a3d bfcb a5bc 4e11 de3d 6564 a33d
000003a0: eee7 883c 6396 8a3c ef65 4ebc e005 a73d
000003b0: 9fe3 9bbd 9b2e c1bb a1f9 f33d f5ed 523d
000003c0: 7161 b53d 2239 4a3c 7a48 4d3d 2210 2c3d
000003d0: dd52 cb3d 6fa2 6a3d c94b f53a 9414 a33d
000003e0: c400 49bd 2ff9 e53c 12bd 383c a72b 2abd
000003f0: 3778 e33d 147f 9ebd 9385 d83d 0fbd 81bd

fc3.bias f4 [64]
-0.07147115 -0.057434 0.0046700644 0.029948058 -0.046341155 -0.06258507 0.04835195 -0.013139449
-0.066453904 0.016997393 0.079267584 0.0020655238 -0.07493643 0.09762013 0.07014889 -0.071568854
0.035742216 -0.07459862 -0.014272188 0.067253835 0.090250716 0.022970447 -0.022486081 0.005499491
0.018931035 0.018447425 0.016625522 0.0386056 0.013498037 0.012942298 0.026508262 -0.020596862
0.0066394564 0.014018298 0.03119445 0.07923077 0.08618554 0.07269612 0.011418998 -0.13527869
-0.014213288 0.061297785 -0.043076497 0.067869104 0.04065319 0.005272566 -0.016470496 0.006701273
-0.041544538 0.026474234 0.07241636 -0.033566933 -0.0346057 0.06815584 -0.017558767 -0.049523566
0.03770627 0.002589717 -0.014293566 -0.006835244 0.0789374 0.038290225 0.039414324 -0.040004697
00000000: 775f 92bd ea3f 6bbd 5707 993b a155 f53c
00000010: 39d0 3dbd 9a2c 80bd b20c 463d d846 57bc
00000020: fc18 88bd 1e3e 8b3c 0b57 a23d bd5d 073b
00000030: 4578 99bd 10ed c73d 39aa 8f3d b192 92bd
00000040: 6e66 123d 29c7 98bd e5d5 69bc 61bc 893d
00000050: 5ed5 b83d 852c bc3c bb34 b8bc 1335 b43b
00000060: 4215 9b3c 0e1f 973c 3f32 883c e820 1e3d
00000070: df26 5d3c ef0b 543c db27 d93c c0ba a8bc
00000080: cc8f d93b 01ad 653c 818b ff3c be43 a23d
00000090: 0b82 b03d b4e1 943d c016 3b3c 7f86 0abe
000000a0: dade 68bc 6313 7b3d fb70 30bd f5fe 8a3d
000000b0: f683 263d 7dc5 ac3b 22ed 86bc 5a96 db3b
000000c0: 9b2a 2abd 7ee0 d83c 074f 943d 7b7d 09bd
000000d0: b5be 0dbd 4a95 8b3d 67d7 8fbc 39d9 4abd
000000e0: e471 1a3d 3eb8 293b 902f 6abc 2ffa dfbb
000000f0: eea9 a13d 36d6 1c3d ea70 213d f7db 23bd

fc4.weight f4 [38, 64]
-0.040774345 0.06148046 0.026942927 -0.033299927 0.10057655 -0.08719105 -0.08616516 -0.045750573
0.1704676 -0.08654233 -0.06331718 0.1024543 0.043813996 -0.04356407 0.057381097 0.027491868
0.15467165 -0.10669208 -0.12044727 -0.10231937 0.014066023 0.078639045 -0.0877849 0.07898195
0.07040407 0.046500497 -0.096758075 0.01348134 -0.0020101122 -0.078436166 0.048045676 0.11905978
-0.0013542026 0.005264135 0.050437603 0.010233862 -0.0563753 0.039057706 -0.0069385604 -0.047376916
0.11980193 -0.022273641 -0.06929133 0.093519226 -0.12719965 0.0978494 0.058251526 0.09624361
0.07107119 -0.010359495 -0.085512325 0.116551645 -0.16876082 -0.027764391 -0.001506188 0.1390012
0.104308486 0.0013780126 0.008804396 0.09738102 0.05770337 -0.044741064 0.15283078 -0.021700045
0.05620846 0.013760835 0.0009997471 -0.019271044 0.08816445 0.11091875 -0.08793569 0.016176892
-0.0043652086 0.087810986 0.09832509 -0.070174955 0.048674542 0.06332153 -0.0010360692 0.17827074
0.06317338 -0.046086106 0.009154577 0.038476452 -0.041940343 0.07873114 0.031247899 -0.07796382
-0.078548476 -0.06937485 0.035136525 0.060401533 0.08893751 0.040196713 0.10940817 0.022784257
0.121628225 -0.20000358 0.008660664 -0.13937132 0.07797177 -0.020384174 -0.0074052038 0.0032762338
-0.0034388974 -0.034768775 -0.068095684 -0.0145031065 0.20090772 0.12807977 0.10875325 -0.044709
0.00092276424 -0.09140966 0.0039720256 0.016455857 -0.18467176 -0.04083312 -0.010595047 0.03807043
0.08136405 0.011774524 -0.043970883 0.101957336 -0.056624603 -0.10913455 -0.13582602 -0.039073065
-0.08510882 0.087495826 0.033869915 -0.061422814 -0.030961305 0.09532068 -0.033348467 -0.06294708
-0.13951702 0.114306286 0.002760447 0.104237325 -0.10039555 0.042929612 0.024988793 -0.07669546
-0.046562202 -0.073595285 0.18110439 0.08811322 0.07928702 0.06877126 0.08045569 -0.07813382
0.050274894 -0.011398831 -0.057860903 0.085435726 0.010305329 0.10483678 0.05422196 0.0735487
-0.021397829 0.09160251 -0.015885 0.012952261 0.053434838 0.07107985 0.012846886 0.017612936
0.058463853 0.11490263 0.08838242 -0.048720434 -0.008332055 0.14069313 -0.04174063 -0.10668804
-0.053992998 -0.023544373 -0.033147324 -0.016989684 -0.05851517 -0.05397192 0.12139739 -0.03853803
-0.1158154 -0.014322981 0.08827029 0.08892193 0.020604784 -0.0016063637 -0.0874426 -0.009516037
-0.051543027 0.054130234 -0.054113224 -0.010764551 0.0523701 -0.031431507 0.09746805 0.19910173
-0.03786598 0.016625036 0.11408825 -0.14551155 0.062969714 0.1795498 -0.015892042 0.020031504
0.024920218 0.10161274 0.10275204 -0.009526377 -0.1448152 -0.11667408 0.09509419 0.0077065616
-0.12774935 0.101678945 0.15609056 0.053124454 -0.09939735 -0.014648685 -0.04338375 -0.017660521
-0.07007137 -0.1084731 -0.027904358 -0.11127018 0.01737409 -0.072582744 0.023339042 0.023222424
0.054855935 -0.031451896 -0.103342555 0.1663356 0.09822552 0.09607465 -0.07702962 -0.0650745
-0.054593984 -0.004873224 0.107566155 0.062399756 -0.051208347 -0.046762418 0.060285956 -0.0054520764
0.1064575 0.12364202 0.11710444 0.12455962 0.10798881 -0.113720335 -0.085571185 -0.11512638
00000000: 0003 27bd efd2 7b3d 6ab7 dc3c 8165 08bd
00000010: 14fb cd3d 3991 b2bd 5c77 b0bd f464 3bbd
00000020: 0f8f 2e3e 1b3d b1bd 70ac 81bd 8fd3 d13d
00000030: 4e76 333d 3d70 32bd 7108 6b3d a036 e13c
00000040: 3f62 1e3e 6181 dabd 0fad f6bd d18c d1bd
00000050: 2d75 663c 820d a13d 92c8 b3bd 4ac1 a13d
00000060: 0230 903d 4e77 3e3d 1929 c6bd d7e0 5c3c
00000070: 16bc 03bb 24a3 a0bd 8bcb 443d 9dd5 f33d
00000080: 807f b1ba c47e ac3b a997 4e3d eeab 273c
00000090: c9e9 66bd f9fa 1f3d dd5c e3bb 4c0e 42bd
000000a0: b75a f53d 3677 b6bc 9de8 8dbd 0287 bf3d
000000b0: a040 02be 4465 c83d 2799 6e3d 5f1b c53d
000000c0: c68d 913d dfba 29bc 1621 afbd a1b2 ee3d
000000d0: a3cf 2cbe 2672 e3bc 486b c5ba 5556 0e3e
000000e0: b09f d53d 6e9e b43a 5040 103c b36f c73d
000000f0: 5e5a 6c3d 6842 37bd ac7f 1c3e 4bc4 b1bc
00000100: d83a 663d 2075 613c f209 833a 4fde 9dbc
00000110: 908f b43d 5f29 e33d a117 b4bd 6785 843c
00000120: 060a 8fbb 3fd6 b33d aa5e c93d e3b7 8fbd
00000130: f55e 473d b8ae 813d b7cc 87ba 9b8c 363e
00000140: 0c61 813d c9c4 3cbd 14fd 153c 7c99 1d3d
00000150: a3c9 2bbd cb3d a13d 98fb ff3c 7fab 9fbd
00000160: 06de a0bd 6714 8ebd 51eb 0f3d 9967 773d
00000170: df24 b63d 4fa5 243d 6411 e03d 0da6 ba3c
00000180: 3818 f93d bdcd 4cbe 75e5 0d3c 5bb7 0ebe
00000190: aaaf 9f3d b6fc a6bc 5aa7 f2bb 15b6 563b
000001a0: 205f 61bb b469 0ebd c075 8bbd 709e 6dbc
000001b0: c1ba 4d3e 5827 033e 06ba de3d c920 37bd
000001c0: a9e5 713a fd34 bbbd c427 823b 6fce 863c
000001d0: 981a 3dbe a140 27bd d996 2dbc bdef 1b3d
000001e0: 32a2 a63d efe9 403c d01a 34bd 02cf d03d
000001f0: 33ef 67bd ef81 dfbd fa15 0bbe 140b 20bd
00000200: 884d aebd 0331 b33d 2ebb 0a3d 7d96 7bbd
00000210: 90a2 fdbc 7d37 c33d 6798 08bd 66ea 80bd
00000220: 8ddd 0ebe 6a19 ea3d 9ee8 343b 617a d53d
00000230: 2f9c cdbd f6d6 2f3d 4cb5 cc3c 8212 9dbd
00000240: 02b8 3ebd 20b9 96bd 6e73 393e b474 b43d
00000250: 3c61 a23d f2d7 8c3d f4c5 a43d a004 a0bd
00000260: 0ced 4d3d 2ac2 3abc 8eff 6cbd edf8 ae3d
00000270: afd7 283c aab4 d63d d917 5e3d b3a0 963d
00000280: 804a afbc 199a bb3d 4221 82bc b835 543c
00000290: 7dde 5a3d 5092 913d bf7b 523c 0149 903c
000002a0: cb77 6f3d 1252 eb3d d801 b53d 148f 47bd
000002b0: 2c83 08bc dc11 103e 39f8 2abd 427f dabd
000002c0: c327 5dbd 21e0 c0bc 7dc5 07bd f32d 8bbc
000002d0: 9aad 6fbd a911 5dbd 329f f83d 0eda 1dbd
000002e0: a030 edbd f0aa 6abc 0ec7 b43d b31c b63d
000002f0: 5dcb a83c 9f8c d2ba 1b15 b3bd 27e9 1bbc
00000300: c81e 53bd aab7 5d3d d4a5 5dbd cd5d 30bc
00000310: 0882 563d 53be 00bd 549d c73d 53e1 4b3e
00000320: 5c19 1bbd 3a31 883c 1aa7 e93d fb00 15be
00000330: 44f6 803d e7db 373e 0730 82bc 1c19 a43c
00000340: 7c25 cc3c 571a d03d a96f d23d 8514 1cbc
00000350: 704a 14be d2f2 eebd bec0 c23d 5387 fc3b
00000360: bad0 02be 0d3d d03d 34d6 1f3e 0799 593d
00000370: d690 cbbd 0a01 70bc 29b3 31bd ccac 90bc
00000380: 9481 8fbd 2527 debd ae97 e4bc 9fe1 e3bd
00000390: 1c54 8e3c 43a6 94bd 8531 bf3c f43c be3c
000003a0: 9eb0 603d b4d3 00bd 43a5 d3bd e153 2a3e
000003b0: 762a c93d c9c2 c43d b5c1 9dbd c845 85bd
000003c0: f19d 5fbd 91af 9fbb a54b dc3d e396 7f3d
000003d0: d8bf 51bd f389 3fbd 68ee 763d 55a7 b2bb
000003e0: 6406 da3d 0738 fd3d 74d4 ef3d 1d19 ff3d
000003f0: 3d29 dd3d 35e6 e8bd f23f afbd 61c7 ebbd

fc4.bias f4 [38]
-0.051813133 0.024814608 -0.09657551 -0.03494818 -0.029545588 -0.00016789955 -0.07510329 0.004338084
0.007756129 0.073286735 0.049606115 0.068388015 -0.074473955 0.13389039 -0.021677773 0.062365536
-0.09308813 -0.071383685 -0.013607854 -0.073042884 0.10292103 0.016683806 -0.06421493 -0.034843814
0.092495255 -0.016483251 0.027952002 -0.028446758 -0.00086805195 0.04515816 -0.009935174 -0.10780608
0.0424246 0.06990835 -0.10193222 0.0011906567 -0.09379152 0.10045283
00000000: 023a 54bd 0148 cb3c 62c9 c5bd d325 0fbd
00000010: 9709 f2bc 310e 30b9 c1cf 99bd 7c26 8e3b
00000020: 2027 fe3b 5b17 963d c82f 4b3d 040f 8c3d
00000030: cd85 98bd 901a 093e 9695 b1bc 0173 7f3d
00000040: fda4 bebd 9c31 92bd 7af3 5ebc 8297 95bd
00000050: 43c8 d23d 7aac 883c 1e83 83bd 63b8 0ebd
00000060: 276e bd3d e207 87bc 99fb e43c 2d09 e9bc
00000070: fb8d 63ba c3f7 383d 24c7 22bc 6fc9 dcbd
00000080: 6bc5 2d3d 1c2c 8f3d d7c1 d0bd cf0f 9c3a
00000090: c515 c0bd 37ba cd3d
